AutogluonModels/ag-20250105_183702/models/NeuralNetFastAI_BAG_L1/S1F5/model-internals.pkl (torch, 244083 bytes, 27 tensors)

weight f4 [5, 4]
000000 b4 71 8e 3b d3 aa 91 3a 75 97 cf 3b d8 ea 8e 3b
       0.0043470506 0.0011113532 0.0063351938 0.0043614917
000010 0a 7a 70 3e 4e 11 2e be 02 3d f2 bc b2 35 24 be
       0.23484054 -0.16998789 -0.029570106 -0.16036108
000020 9d f3 f8 bd 69 90 5c 3e f1 b4 24 3c 76 65 f4 bd
       -0.121558405 0.21539463 0.010052905 -0.11933415
000030 b0 84 42 bd 3d a9 aa 3d df 17 8b bd d8 5c 7b bd
       -0.047489822 0.08333061 -0.067916624 -0.06136784
000040 f5 ce 81 bd a2 9a ca bc ee 36 ee 3d 8b 16 14 3e
       -0.06338302 -0.024731938 0.11631571 0.14461724

weight f4 [6, 4]
000000 7d c9 0d bb ab f1 8c bb e1 f8 3c ba 0d 2a b0 b9
       -0.002163499 -0.00430127 -0.00072087167 -0.00033600666
000010 23 4e 81 3d 91 dc 73 be 9d a5 00 3e c5 9d 39 3d
       0.063137315 -0.23814608 0.12563176 0.045316476
000020 9c 76 30 bd 34 5c 00 3e 65 b3 d4 bc 89 62 33 be
       -0.043081865 0.12535173 -0.025964448 -0.17518057
000030 79 d2 7f bd b3 f1 6a bd c8 42 26 3e 62 60 22 3e
       -0.06245658 -0.05735941 0.16236413 0.1585708
000040 f3 41 33 bd 07 12 03 3e 2a 70 ac bd c1 a4 06 3e
       -0.043764066 0.12799846 -0.08419831 0.13148786
000050 7e 31 9f 3d 14 5e 07 3e 45 0d fd bd c0 8e ba bd
       0.07773112 0.13219482 -0.123560466 -0.09109259

weight f4 [6, 4]
000000 57 4c b5 bb f0 d2 ac 3b ba d0 83 3b 3b a9 7f 3b
       -0.005532782 0.005274169 0.004022685 0.0039010781
000010 86 01 00 3d a1 7a e9 3d fe bf 2c 3e 23 8e 71 3d
       0.031251453 0.11400343 0.16870114 0.058973443
000020 cb 6e b6 bc da 25 ee 3d 04 a2 dc 3d 41 fe 33 be
       -0.022269627 0.11628313 0.107730895 -0.17577459
000030 84 fa de 3c f1 69 ab bd 13 72 56 be ee d3 01 bc
       0.027219065 -0.08369816 -0.20941953 -0.007924063
000040 9d 53 8f 3d 3f 0a b6 bd d6 2a 06 be 67 39 39 3d
       0.0699837 -0.08888673 -0.13102278 0.04522076
000050 71 d5 40 3e f0 ba c2 ba 2f 96 88 be 2b 72 d3 3d
       0.18831421 -0.0014856737 -0.2667708 0.1032451

weight f4 [6, 4]
000000 14 96 17 bb b0 24 e5 3b b0 e9 bb 3b b4 d6 2d 3b
       -0.0023130225 0.006992899 0.005734645 0.0026525678
000010 f9 21 21 3d 48 89 7d 3d 52 de 69 3d 48 7a f0 bd
       0.03933904 0.0618985 0.057096787 -0.11742073
000020 50 9e 18 3e c1 4c fe 3d 79 df 0a bd 8b 76 b1 bd
       0.14904141 0.124169834 -0.033904526 -0.086651884
000030 f8 82 53 3d 70 66 34 bd 59 94 9a bc b0 a7 1a 3e
       0.051638573 -0.044043005 -0.018869566 0.1510303
000040 73 f3 50 be 6f 5c 09 bd ae e7 3b be 2e 5f 09 bd
       -0.20405369 -0.033535417 -0.18350098 -0.033538036
000050 a0 21 e0 bd 47 3f 53 bd b3 22 05 bd 6d a3 47 bc
       -0.109439135 -0.051574018 -0.032503795 -0.01218496

weight f4 [6, 4]
000000 13 4f af 3b f8 47 79 3c 34 eb 2f 3c a6 e4 49 3c
       0.0053500026 0.015214913 0.010737229 0.01232258
000010 6b bf 80 3c df 99 e3 bd 1a cb c6 3c 8b ac 97 bd
       0.015716275 -0.11113333 0.024266768 -0.07405957
000020 10 9a 1b be 5f 2c 8c bd ad ac 69 bd f9 cc 8a bd
       -0.15195489 -0.068444006 -0.057049442 -0.06777377
000030 dd 49 1e be a9 cf ea 3d 41 54 8e bd 49 7d 2c be
       -0.15457864 0.11465389 -0.06949664 -0.16844667
000040 de bd 8c bd 6c 33 7b 3a f0 bb a6 bc b2 6b 35 3c
       -0.06872152 0.00095825526 -0.020353287 0.01107304
000050 0b 64 5f 3e 85 de 6e bd a0 5f 3d 3e 5f 08 64 3e
       0.21815507 -0.05831768 0.1849351 0.22268818

weight f4 [6, 4]
000000 83 b1 25 3b 6c 0a 47 3c 32 45 9d bb 70 f0 92 3b
       0.0025282807 0.012148481 -0.0047995085 0.004484229
000010 74 ac 12 3e 3f 29 35 bd 12 6d d8 bd 08 2e e8 bd
       0.14323598 -0.04422879 -0.105676785 -0.11336905
000020 44 6e 2e bc 09 e5 eb 3d 35 b2 b8 3d 5b 17 e7 3d
       -0.010646407 0.11518294 0.09018365 0.112837516
000030 96 e2 ec bd 14 ad 1c 3d 1e 1a 6a 3c 0d b7 ee 3d
       -0.11566655 0.038250998 0.014288453 0.11656008
000040 46 b3 2f 3d 28 03 88 be 0f c5 80 bd 50 36 df 3a
       0.042895578 -0.26564908 -0.06287586 0.0017029736
000050 d5 c5 4f 3d b8 a9 0a b9 3e 29 2d 3d c8 e5 de bd
       0.050725777 -0.00013223931 0.04227566 -0.10883671

weight f4 [6, 4]
000000 f9 e7 b0 bb 30 27 cc bb 0c 9a cd bb 67 e0 1d 3c
       -0.005398747 -0.0062302575 -0.0062744673 0.009636021
000010 03 81 d3 bc 01 fb 32 3d 28 8d f6 3c 7f fb ca bd
       -0.025818354 0.043696407 0.030096605 -0.0991125
000020 51 5c 32 bd 19 ed 06 3d 54 e7 f3 3d c1 16 02 be
       -0.04354507 0.032940958 0.11909357 -0.12703992
000030 c2 a2 8e be 18 c1 a2 3e ec a2 0a 3e cc 26 82 3d
       -0.2785855 0.31787944 0.13538712 0.06355056
000040 58 21 f5 bd 3b 8e e9 3d 85 40 0d 3e 98 84 75 bd
       -0.119692504 0.114040814 0.13794143 -0.059940904
000050 e9 73 6e bc a4 d7 a2 bd 70 25 08 bd 52 9c ae bd
       -0.014554002 -0.079512864 -0.03323883 -0.085259095

weight f4 [6, 4]
000000 f2 89 33 3b 6e f1 1e bc cc f9 0f 3c 77 25 7e 3c
       0.0027395454 -0.009701116 0.008787584 0.015511862
000010 4e 9e d6 bc 7c 3e 39 3d 15 95 a2 bd 77 bc 9e 3d
       -0.026198532 0.045225605 -0.079385914 0.077507906
000020 5b db 13 ba 0f 59 4c be 07 3b 9b bd 2b a8 01 3d
       -0.00056402915 -0.19955848 -0.07579618 0.031654518
000030 ae 23 3e 3e e3 7d 08 bd f0 cc b0 3d ea 4e ce bc
       0.18568298 -0.03332318 0.08632839 -0.025184114
000040 47 3f 23 3d a2 e2 39 3e 41 7b 1e be 03 a5 19 3e
       0.039855268 0.1815286 -0.15476705 0.15004353
000050 a5 18 05 be ee eb 08 3e 58 72 8b 3d 79 49 29 be
       -0.12997682 0.1337125 0.06808919 -0.16531934

weight f4 [5, 4]
000000 17 3a 05 bc 33 9c b6 ba 73 01 81 3a db f6 e1 bb
       -0.0081315255 -0.0013932049 0.0009842351 -0.0068958825
000010 3e 3b 6d bd 94 b3 c4 bc 89 56 5f bd 74 45 42 be
       -0.057917826 -0.02401141 -0.054525886 -0.18971807
000020 79 8c 0b bc 46 94 ab bd ce 7f 92 3d f2 97 7d 3d
       -0.008517378 -0.0837789 0.07153283 0.061912484
000030 b5 f8 29 3d f0 59 29 3e 66 ca 82 bd 59 c2 5f bd
       0.04149695 0.16538215 -0.06386261 -0.054628704
000040 c5 11 b8 3d 8d 8f 6a bd 01 e3 87 3c dd 80 c9 3d
       0.08987764 -0.057265807 0.016587736 0.09839032

weight f4 [6, 4]
000000 8b 2d 3c 3c ab 1b 90 39 26 5c 92 bc c5 77 b4 bb
       0.011485468 0.00027486435 -0.017866205 -0.0055074417
000010 27 6d c9 bd ca 31 a2 3d 14 fa 32 3d b0 b4 bd bd
       -0.09835272 0.07919653 0.043695524 -0.09262979
000020 2b d9 2f be c9 16 e8 3d 56 8b 04 3d 99 0d 45 bd
       -0.17172687 0.11332471 0.032359444 -0.04810867
000030 1a 3e c9 3d fe f7 c9 bd 47 e2 30 be 61 d9 cc 3c
       0.09826298 -0.09861754 -0.17273818 0.025005998
000040 1b 03 ca bd b2 ce dd 3d d0 34 5f 3d 3d 35 3c 3d
       -0.098638736 0.108304396 0.054493725 0.04594921
000050 51 07 8e 3d a3 7c 62 3d be 64 cc 3d 32 14 6f bd
       0.06934989 0.055294644 0.099801525 -0.05836887

weight f4 [6, 4]
000000 8e 85 22 bc 6e 5b 83 bb 3f a4 25 3c f6 09 25 bb
       -0.009919537 -0.004008702 0.01010996 -0.002518294
000010 f8 04 1b 3d 69 c4 87 3d be d5 62 3d 4b 5c b7 bd
       0.037846535 0.06629259 0.05537962 -0.0895315
000020 32 02 cd 3d e8 29 20 be 8f 9d 8b 3d df a9 bf 3d
       0.10010184 -0.15640986 0.06817161 0.09358572
000030 0e f1 a2 be ae 39 4f 3e 31 1b 34 3e ef 3e 01 bd
       -0.31824535 0.20236847 0.17588498 -0.03155416
000040 e3 37 1e 3d 16 8d 8e 3c 0b 97 28 3d 6e 05 52 bc
       0.038627516 0.01740126 0.04115967 -0.012818677
000050 37 36 05 bd 52 e4 69 3b 0f 87 f8 bd 50 db b4 3d
       -0.032522406 0.0035689068 -0.121351354 0.08830893

weight f4 [69]
000000 7f c9 7e 3f ae de 81 3f 3a 84 6b 3f b2 69 5f 3f
       0.9952621 1.0146081 0.91998637 0.87270653
000010 91 4c 58 3f 9a 43 62 3f 52 12 6c 3f a1 36 68 3f
       0.8449183 0.883844 0.92215455 0.9070836
000020 23 7e 6a 3f d3 80 7c 3f bd 9e 39 3f 14 1c 4a 3f
       0.9159872 0.9863407 0.7250784 0.78949094
000030 29 73 69 3f 0f 29 74 3f f5 91 57 3f 35 4e 58 3f
       0.91191345 0.9537515 0.8420709 0.84494334
000040 8d 36 58 3f b0 16 59 3f 7b 92 66 3f af e6 81 3f
       0.8445824 0.84800243 0.9006726 1.0148524
000050 a7 9d 72 3f c9 d4 56 3f a9 27 55 3f 6f e8 47 3f
       0.9477181 0.83918434 0.8326364 0.7808904
000060 1a dd 4b 3f f3 c2 82 3f 93 d4 4f 3f e1 0d 89 3f
       0.7963425 1.0215744 0.8118374 1.070736
000070 d0 36 60 3f e1 b8 57 3f ec ee 2c 3f c8 8c 2d 3f
       0.8758364 0.8426648 0.67552066 0.6779294
000080 54 33 44 3f c5 a3 30 3f e4 7b 6d 3f 08 76 55 3f
       0.7664082 0.6899989 0.9276717 0.83383226
000090 8f a7 44 3f c1 b9 7d 3f 28 c6 47 3f ca bb 5b 3f
       0.76818174 0.9911156 0.7803674 0.8583342
0000a0 78 86 3c 3f cb 05 56 3f 44 ee 49 3f 02 e2 77 3f
       0.73642683 0.8360259 0.7887919 0.96829236
0000b0 ec 33 79 3f bb 47 91 3f 80 a5 94 3f 05 b2 8c 3f
       0.9734485 1.1350015 1.1613007 1.0991827
0000c0 0b ea 8f 3f 31 42 93 3f 56 55 83 3f f5 6c 84 3f
       1.1243299 1.1504575 1.0260417 1.0345751
0000d0 a8 09 8d 3f 8f 1f 88 3f 29 0b 8c 3f 8a 02 94 3f
       1.1018572 1.0634631 1.0940906 1.1563275
0000e0 6b 74 80 3f 83 72 97 3f 60 08 8f 3f d7 ae 8f 3f
       1.0035528 1.1831821 1.1174431 1.1225232
0000f0 9a 9b 8f 3f 49 b4 8e 3f 73 b8 91 3f 92 32 92 3f
       1.1219361 1.1148769 1.1384414 1.1421683
000100 2a 0a 85 3f e5 08 9c 3f 71 42 6a 3f 75 4c 6c 3f
       1.0393727 1.2190214 0.9150763 0.92304164
000110 f7 3c 64 3f
       0.89155525

bias f4 [69]
000000 7f d1 5a 3d 87 a8 2e 3d 65 bf 75 3d 10 d5 f7 bd
       0.053422447 0.04264119 0.05999698 -0.12101185
000010 1e 1c 77 bb 83 da 81 bc 3f 99 80 bd 0f 79 14 3d
       -0.0037705968 -0.015851265 -0.062792294 0.036248263
000020 e0 21 a0 3d c9 8c 12 3d d5 a4 a1 bb 35 b8 05 bc
       0.07818961 0.035778794 -0.0049329796 -0.008161594
000030 93 f0 08 bd 67 11 4d 3d 46 17 60 3c 5e 28 84 bd
       -0.033432554 0.050065424 0.013677424 -0.06453012
000040 9f 95 53 bd ae 64 20 bc 04 12 43 bd 28 21 92 bd
       -0.05165636 -0.009789629 -0.047624603 -0.0713523
000050 32 d8 93 bd 03 6e 2f 3c 05 e6 e8 bd e0 fa da 3d
       -0.0721897 0.010707381 -0.11371998 0.10692382
000060 19 17 ca 3d 2d 96 96 bd 8d bc 16 3d 1f 6f de 3c
       0.09867687 -0.073528625 0.03680091 0.027152596
000070 77 3e db 3b c8 bd 97 bd a7 9d 4b bc 20 75 e9 bd
       0.006690796 -0.07409245 -0.012427724 -0.11399293
000080 df 13 0f 3d ea fa 66 bd b5 39 c9 3d 3e f3 6d 3d
       0.03493106 -0.056391634 0.0982546 0.058093302
000090 13 47 93 3d 60 3d 3f 3d 70 74 15 3e 08 c3 dd bc
       0.07191291 0.04668939 0.14595199 -0.027070537
0000a0 38 1a 39 3d 89 c0 9e bc 8b 8c ea bd 94 82 f8 bc
       0.04519102 -0.019378917 -0.11452588 -0.030335702
0000b0 ce fb 35 3c 7f 81 7d bd 08 44 96 bd 22 0c 7c bd
       0.011107398 -0.061891075 -0.07337195 -0.06153501
0000c0 dc 0b 94 bd e8 c6 45 bd d2 5e 86 bd 62 af 6c bd
       -0.072288245 -0.048285395 -0.06561054 -0.057784446
0000d0 06 0c aa bd 82 df 89 bd 2b b8 b3 bd ad 9f 42 bd
       -0.083030745 -0.06732084 -0.087753616 -0.04751556
0000e0 9c 50 44 bd 88 a0 aa bd 27 5a ed bc 60 8b 6d bd
       -0.047928438 -0.083314 -0.028973652 -0.057994246
0000f0 f3 c9 99 bd 07 f2 9d bd 58 96 7e bd 5e 6a ba bd
       -0.07509222 -0.07712179 -0.062155098 -0.09102319
000100 22 ae 46 bd a3 dc 07 bd e0 d2 91 bd a2 29 12 3e
       -0.04850591 -0.0331694 -0.07120299 0.14273694
000110 8c d5 84 bd
       -0.06486043

running_mean f4 [69]
000000 f4 38 79 3b 75 8a 8d 3b ca 89 60 3c 69 ff fc 3b
       0.0038028331 0.004319484 0.0137047265 0.007720877
000010 80 77 c3 3a cc ef 03 3c 0f da 33 bb ac 6a 6f 3b
       0.0014912933 0.0080527775 -0.0027443205 0.0036532087
000020 11 60 81 3b 46 5f 36 bb 06 85 9e 3b e0 e6 03 3c
       0.0039482196 -0.0027827783 0.004837635 0.00805065
000030 26 cd d8 ba 60 45 a6 38 be 7c 7c bc 52 a7 33 bc
       -0.0016540631 7.928419e-05 -0.0154106 -0.010965185
000040 47 5a 7b bb 76 e4 eb bb ed 2a a1 bb b0 e4 b8 3c
       -0.003835337 -0.0071988655 -0.004918447 0.022569984
000050 a1 58 48 3c 9e 08 17 bc 6e 4c 01 bc 9f 54 d6 bb
       0.012228162 -0.009218363 -0.007891757 -0.0065408493
000060 d6 e9 67 ba dd 9d 96 3c e7 2a 39 3c 7e d7 a4 bb
       -0.0008846795 0.018385822 0.011301733 -0.0050305715
000070 0d c6 3c bc 06 37 0b 3c 14 41 33 bc 69 8b 37 bc
       -0.011521828 0.008497005 -0.010940809 -0.011202672
000080 c0 de 33 bc 1c 41 33 bc 7d 9f c0 ba 0c 84 f7 3b
       -0.010978401 -0.010940816 -0.0014695969 0.007553583
000090 3c 84 4d 3c 06 05 e3 3b cf 00 31 bc e4 bc 33 bc
       0.012543734 0.006928089 -0.010803415 -0.010970328
0000a0 98 94 28 bc 90 39 29 bc 48 d6 32 bc 16 83 21 bc
       -0.010289334 -0.010328665 -0.010915346 -0.0098579135
0000b0 08 25 7b 3c 3e 5e 27 3c df b4 b5 3c dc ed e1 3c
       0.015328653 0.01021534 0.022180973 0.02757924
0000c0 dc 18 b3 3c 7b 9c f2 3c 2d 33 cf 3a e6 29 9e 3c
       0.02186244 0.029615631 0.0015808098 0.019307088
0000d0 55 06 73 3c ef 32 d8 3c 4b 42 55 3c 4a a2 ce 3c
       0.014833053 0.026391475 0.013016294 0.02522387
0000e0 17 30 6b 3c a7 4d 58 3c 4a 34 2a bb 41 16 b0 3c
       0.014354727 0.0132021075 -0.0025971108 0.021494986
0000f0 1c aa a1 3c bf dc b2 3c f6 6b 96 3c 99 2e b8 3c
       0.019734435 0.021833776 0.018362027 0.022483157
000100 f5 36 8c 3c 46 29 c8 3c 01 41 bc bb 49 b8 a7 bb
       0.01711605 0.024433743 -0.0057450538 -0.005118404
000110 16 41 ad 3c
       0.0211492

running_var f4 [69]
000000 c0 12 7f 3f 78 37 80 3f a2 41 5a 3f f4 ba 74 3f
       0.99637985 1.0016928 0.852564 0.9559777
000010 fa bb 70 3f 7e d7 77 3f fc 09 2a 3e 1c 2b 70 3f
       0.9403683 0.9681319 0.16605371 0.9381578
000020 7e e1 5f 3f 7d 39 64 3f 56 f0 5e 3e e7 48 7f 3e
       0.8745345 0.8915022 0.21771368 0.24930154
000030 40 c8 89 3e 5e 08 26 3f fa 91 2d 3f 8d 88 8a 3e
       0.2691059 0.6485652 0.6780087 0.27057305
000040 8c 14 9c 3e 44 f6 96 3e 9a c9 a2 3e 1b 58 3d 3f
       0.30484426 0.2948476 0.31794435 0.73962563
000050 a9 5a 2e 3f 8a 92 31 3f b0 c0 2d 3f 93 1a 2e 3f
       0.68107086 0.69364226 0.6787214 0.680093
000060 62 f4 2c 3f f5 25 35 3f 47 c4 29 3f ab b6 28 3f
       0.675604 0.7076104 0.6631512 0.6590373
000070 c6 65 57 3e 53 6b 30 3f ae 1b 62 3e 3f 55 6a 3e
       0.21034917 0.68913764 0.22080871 0.22884081
000080 bc 2f 60 3e ae 1b 62 3e 16 6f 22 3f aa fb 23 3f
       0.21893209 0.22080871 0.63450754 0.64055884
000090 42 9d 5e 3e f4 57 2e 3f 16 8f 6d 3e 42 44 5e 3e
       0.21739677 0.68102956 0.23199114 0.21705726
0000a0 cb c1 77 3e 74 5d 78 3e 49 fa 64 3e f5 e9 08 3e
       0.2419502 0.242544 0.22361101 0.13370498
0000b0 9b 12 07 3f 91 ad 79 3f a3 30 80 3f 3c e2 80 3f
       0.52762765 0.97530466 1.0014843 1.0069041
0000c0 c8 31 85 3f 25 1d 80 3f 38 d2 7d 3f 32 0b 87 3f
       1.0405817 1.0008894 0.99148893 1.0550292
0000d0 9c 29 82 3f dd 2f 85 3f f8 96 7b 3f 87 3b 81 3f
       1.0168948 1.0405232 0.98277235 1.0096291
0000e0 fd 7a 82 3f 95 e4 80 3f 43 5d 7d 3f bc 20 82 3f
       1.0193783 1.0069758 0.9897043 1.016624
0000f0 54 07 80 3f 63 5e 79 3f d4 30 7a 3f 1b 43 80 3f
       1.0002236 0.9740965 0.97730756 1.0020479
000100 d2 ff 81 3f d1 fe 7f 3f ed dc 68 3f 75 d6 6a 3f
       1.0156195 0.99998194 0.90962106 0.91733485
000110 6c 40 79 3f
       0.97363925

weight f4 [200, 113]
000000 ee 36 b5 3e 8b 06 eb bd 53 59 44 be a8 5b a2 be
       0.3539347 -0.11475857 -0.191747 -0.31710553
000010 35 56 72 bd 29 8d 2e be b9 5b a4 3d 51 83 8c bd
       -0.059164245 -0.17046036 0.08025307 -0.06860984
000020 69 fe 17 bc c3 50 b2 3c 95 b0 64 3d d3 45 30 3d
       -0.009276965 0.021767026 0.055832464 0.04303534
000030 0c 6e 5f bd c4 e2 eb bd aa ca cd bd 6e 71 1e 3e
       -0.05454831 -0.115178615 -0.10048421 0.15472957
000040 c1 60 81 be 6e b1 a6 bc ba b9 14 be 7d af 21 be
       -0.2526913 -0.020348277 -0.14523974 -0.157896
000050 3e 5e 14 be a4 97 34 3e 0a 43 28 3e ac 87 dd 3d
       -0.14489076 0.17635971 0.16431823 0.10816893
000060 5f 06 3e 3e 5a f2 72 bb 70 2c 90 bd 8f 66 f6 3d
       0.18557118 -0.0037070722 -0.07039726 0.1203128
000070 13 65 8b bc bb 14 12 be 93 8c 14 bc 53 dc 1e bd
       -0.01701597 -0.1426572 -0.009066719 -0.038784336
000080 ba 91 74 bd d1 04 87 bd 27 03 cb 3b 50 89 a1 3d
       -0.05970929 -0.065927155 0.006195444 0.078875184
000090 e0 fa 45 bc 88 fb ec 3d 10 47 dc 3d 46 c5 95 3d
       -0.012083739 0.11571413 0.107557416 0.073130175
0000a0 39 81 84 3e 30 60 36 be 7a 35 1a bd a9 42 ef bd
       0.2587984 -0.1781013 -0.037648655 -0.11682636
0000b0 ef 65 47 be 2f 89 65 bd 3d 11 c0 3c 42 b4 77 3d
       -0.19472478 -0.05603903 0.02344572 0.06047464
0000c0 ad d9 90 3a a8 95 fd b9 11 b7 e1 3c c6 57 46 3d
       0.00110512 -0.00048367423 0.027553113 0.04842355
0000d0 26 43 5e be c1 2f 5f bc d9 ca 74 3d fd cf 33 3c
       -0.21705303 -0.013622225 0.059763763 0.010974881
0000e0 d3 fd 48 3d ed 76 44 be d8 aa 0e bd 40 d2 ec bc
       0.04907019 -0.19185992 -0.034830898 -0.028908849
0000f0 64 63 49 bc 6d 3b 15 be 12 72 7b 3d de 06 af bd
       -0.012291763 -0.1457345 0.061388083 -0.08546232
000100 f2 fe 1c 3e ae d0 3b 3d 3b 81 4e 3e 96 9d e8 bd
       0.15331629 0.04585331 0.20166485 -0.11358182
000110 f9 e0 9a bd 7e 3b 3f 3e ec 5d 40 3e 05 75 c9 3d
       -0.075624414 0.18675038 0.18785828 0.09836773
000120 6d a3 66 3d 3d 66 26 bd b9 7c 9d 3d 63 88 92 3c
       0.0563082 -0.040624846 0.076898046 0.0178873
000130 9e 0e ea ba 3d 43 3e bd e9 fb c2 bb 82 26 93 3d
       -0.001785714 -0.046450842 -0.00595044 0.07185079
000140 d9 aa 38 bd a0 47 b3 3d b8 00 95 bd c7 0d 84 bd
       -0.045084808 0.08753896 -0.07275528 -0.0644794
000150 93 90 3a 3d 64 15 a7 bd 76 67 3b bd b9 76 01 3d
       0.045548033 -0.08158377 -0.045752965 0.031607363
000160 e8 8c 9d bd 97 38 e8 bb aa 31 ca 3d 3c eb 9d 3d
       -0.07692891 -0.007086824 0.09872754 0.07710883
000170 13 ab cf bd 1e 15 b6 3b e9 32 39 bd 68 e1 62 bd
       -0.10140052 0.0055567166 -0.045214567 -0.055390745
000180 a0 b8 dc bd 51 e4 24 bd d8 8a 8b 3d 01 a7 9e bd
       -0.10777402 -0.040256802 0.06813592 -0.07746697
000190 e1 5a c6 3c e1 59 ff bd 40 d7 ef 3d 1d db 9e bd
       0.024213256 -0.12468315 0.117109776 -0.07756636
0001a0 d6 ea 74 bc a3 7d f5 3d 5e ff bf 3d fb a8 f9 3c
       -0.014948567 0.11986854 0.09374879 0.030476084
0001b0 6a 1a 2a 3e 17 ea 82 3d 84 84 53 be 9d da 1d be
       0.16611639 0.06392305 -0.2065602 -0.15415426
0001c0 3b 25 77 3d 4a 2e 3b 3e 21 38 a2 bc b4 95 a6 bd
       0.06033824 0.18279377 -0.019802155 -0.08134022
0001d0 ef 7b 09 be ac 8d 99 3d b4 58 bc bd 15 09 ab bd
       -0.13426183 0.07497725 -0.09196606 -0.08351342
0001e0 11 41 90 bd cf aa 2d be 62 35 e6 bc c8 2a 64 3e
       -0.070436604 -0.1695969 -0.028101627 0.22281945
0001f0 4a ce 2d be 00 eb 27 3e 53 c5 b4 bb b3 20 94 3c
       -0.16973224 0.16398239 -0.005516687 0.018081998
000200 22 4c ae 3d 13 a9 ff bc 8a 6a 9e 3c ab e0 45 bd
       0.08510615 -0.03120855 0.019337911 -0.048309963
000210 13 b1 91 3d 78 d4 92 bd 9a 60 4d 3d 86 91 22 3e
       0.07113852 -0.071694314 0.050140955 0.15875825
000220 f0 84 9e 3d fe 35 4d 3d af 8a 2f be b4 8b 3a be
       0.077401996 0.05010032 -0.17142747 -0.18217355
000230 a8 8b f4 ba 3c c3 83 3e b4 30 6f be 6a 5e ce bb
       -0.0018657343 0.2573489 -0.23358423 -0.006297876
000240 7a a3 0f bd 28 01 be bd 1d 7a f5 bc a9 cb 35 bd
       -0.035068013 -0.09277564 -0.029965455 -0.04438368
000250 4d 07 93 bd 23 b8 95 bd 9e 34 2e bd 84 3b 21 3e
       -0.07179127 -0.07310512 -0.04253065 0.1574536
000260 52 ca 8d 3d 97 3b 03 3d 41 97 a4 bd ca 96 ea 3d
       0.06923355 0.03203925 -0.08036662 0.11454542
000270 29 da be 3a 06 fa 84 bd 3f b1 62 3c 1c 26 42 3d
       0.0014560866 -0.06493001 0.013836204 0.047399625
000280 df ab d0 bb 76 86 d4 bd 59 0a 87 bd c5 14 cc 3d
       -0.006368145 -0.10377209 -0.065937705 0.09964899
000290 b9 df 2c bd 17 b8 2c 3e 59 63 51 3d 2d 3c 74 bc
       -0.042205546 0.168671 0.051120136 -0.014906925
0002a0 a0 b0 4b bd 4f 8b 92 3c 55 a8 44 3d 19 37 e6 3d
       -0.04972899 0.017888693 0.048012096 0.11240978
0002b0 d3 57 ac bd 2d 27 fc 3b ee b2 c2 bd 7d e5 61 3d
       -0.08415189 0.0076951 -0.095067844 0.055150498
0002c0 9e f4 27 bd 97 ef 1e 3e 7f 9d 66 bd 6a da 99 bd
       -0.04100477 0.15521084 -0.056302544 -0.07512362
0002d0 1f 3f 2c 3d 10 40 d0 bc ab 59 8c 3d 82 6b 52 3d
       0.042052384 -0.025421172 0.0685304 0.05137206
0002e0 47 f4 bc bd a9 56 9d 3d 4b 3b a5 3c ed b9 34 bd
       -0.0922628 0.07682545 0.020169875 -0.044122625
0002f0 00 7a 39 3d 5e 3e 99 3d 0e ba ad bd a5 51 09 bc
       0.045282364 0.07482599 -0.08482753 -0.008381282
000300 e5 aa df 3d cc d6 2f 3d fb f8 f8 3d 66 8d 44 bd
       0.109212674 0.042929456 0.12156864 -0.04798641
000310 4b b7 69 bd aa 61 9c 3d a1 c7 1d 3d 93 b3 b2 3d
       -0.057059567 0.076358154 0.03852046 0.08725657
000320 f2 d8 1e bd 22 7e 77 bc 2f 20 1c bd b4 a4 ff bd
       -0.038781114 -0.015105756 -0.03811663 -0.124825865
000330 c0 28 be 3c 9c 8a 64 3d 1c 4b cd 3b 2c 15 1d bd
       0.02321279 0.05579625 0.0062650573 -0.03835027
000340 c6 f2 31 3d 37 1c b1 bd 1b 68 92 3d 53 75 ee bd
       0.043444417 -0.0864796 0.07148763 -0.116434716
000350 92 7d fe bd f8 e4 03 bd f3 86 b2 3c 14 7f b3 bc
       -0.124262944 -0.032200783 0.021792864 -0.021911182
000360 2f 81 bf ba a0 aa b4 bd c0 79 8a ba 99 61 0b bd
       -0.0014610643 -0.08821607 -0.0010564849 -0.034028623
000370 c7 45 3f 3c 40 94 85 3c 93 9c 45 3c cd 50 97 bd
       0.011674351 0.016306043 0.012061256 -0.073884584
000380 61 86 97 bd 78 fb 85 bd 3b 61 c6 3d b0 9b 1c be
       -0.073986776 -0.065421045 0.09686514 -0.15293765
000390 cb bf 2c be 41 e0 0e 3e 2f 48 40 be 9b 3d 3e 3d
       -0.16870038 0.13952734 -0.18777536 0.04644547
0003a0 70 ec 12 3d a6 34 c9 3d 64 a3 b5 bc e4 2c b7 3a
       0.035870016 0.09824495 -0.022172637 0.001397517
0003b0 36 39 07 bd 95 88 3a bd 7e e4 c7 bb 20 5b 90 bd
       -0.033013545 -0.04554041 -0.0061002364 -0.07048631
0003c0 cf dc b9 bd ca b2 0a 3e cc 88 e0 3c 51 c6 83 bd
       -0.09075319 0.13544765 0.02740898 -0.0643431
0003d0 9f 76 86 bd 6c 12 8e 3c 09 c7 95 be 89 48 d4 3d
       -0.06565594 0.017342769 -0.29253414 0.103653975
0003e0 1b 57 6d 3e 10 96 a2 3e d2 30 a8 3c c6 68 5e be
       0.2317776 0.31755114 0.020531092 -0.21719655
0003f0 dd f3 0c bc 8b 78 a5 bb e9 2f 2c be 84 56 b1 bc
       -0.008603063 -0.00504977 -0.16815151 -0.0216477

weight f4 [200]
000000 43 ab 80 3f 5e 4d 78 3f 67 63 6d 3f 63 2e 72 3f
       1.0052265 0.9699305 0.927298 0.9460203
000010 d0 c9 7e 3f 12 75 81 3f ff fd 70 3f e5 92 60 3f
       0.9952669 1.0113852 0.9413757 0.87724143
000020 b5 82 8f 3f dc 6d 83 3f f2 16 79 3f 52 b4 83 3f
       1.1211764 1.0267901 0.97300637 1.0289404
000030 ef 7a 60 3f 8d 9c 69 3f 98 8b 74 3f 0b 1e 8c 3f
       0.8768758 0.912545 0.95525503 1.0946668
000040 14 0c 8b 3f c3 85 86 3f 4c 6a 83 3f fe f5 80 3f
       1.0863061 1.0509571 1.0266814 1.0075071
000050 fd d6 76 3f 84 0d 77 3f bc fc 6c 3f 4d d2 81 3f
       0.96421796 0.96505 0.9257314 1.0142304
000060 f7 44 83 3f 58 bb 84 3f aa 97 79 3f d0 1f 70 3f
       1.0255421 1.0369673 0.97497046 0.9379854
000070 8f 1c 79 3f bf 8a 70 3f b9 a9 7e 3f ca ce 7f 3f
       0.973092 0.9396171 0.99477726 0.9992491
000080 49 f8 75 3f ca bf 78 3f 82 dc 7b 3f 46 0d 84 3f
       0.9608198 0.97167647 0.98383343 1.0316551
000090 1d 5f 6e 3f 69 02 88 3f e3 e4 80 3f 46 b0 76 3f
       0.9311388 1.0625736 1.0069851 0.9636272
0000a0 e1 5f 8b 3f 75 40 65 3f bc ba 78 3f ed c3 86 3f
       1.0888635 0.8955148 0.97159934 1.0528542
0000b0 43 dc 76 3f a7 fe 75 3f 4b 89 8d 3f 3e 6c 86 3f
       0.9642984 0.96091694 1.1057523 1.0501783
0000c0 e7 27 74 3f 1f 9c 7a 3f 2e c9 8a 3f 68 8a 6a 3f
       0.95373386 0.9789447 1.0842645 0.9161744
0000d0 cb 24 5e 3f 6e c6 82 3f 4c 62 6f 3f 6b 3d 7e 3f
       0.8677489 1.0216806 0.93509364 0.99312466
0000e0 30 c2 67 3f 4c bd 80 3f c9 b1 71 3f 44 e8 87 3f
       0.9053068 1.0057769 0.94411904 1.0617757
0000f0 8f 89 80 3f bb 82 80 3f a1 0f 85 3f 66 fb 7d 3f
       1.004198 1.0039896 1.0395395 0.9921173
000100 fd c4 6b 3f 05 79 8f 3f de c0 66 3f a8 17 8b 3f
       0.92097455 1.1208807 0.9013804 1.0866594
000110 62 5c 6c 3f 02 e4 80 3f b1 82 72 3f 71 ee 6b 3f
       0.92328465 1.0069582 0.9473067 0.9216071
000120 42 e7 56 3f b6 74 6c 3f cc 61 7f 3f b1 96 64 3f
       0.8394662 0.92365587 0.997586 0.89292437
000130 94 90 87 3f 2c 46 89 3f b8 fe 88 3f 75 02 6e 3f
       1.0590997 1.072454 1.0702734 0.929725
000140 74 05 74 3f c9 25 64 3f 6a 31 73 3f dc 43 6b 3f
       0.9532082 0.89120156 0.94997275 0.9190042
000150 89 a7 86 3f 7f 37 66 3f 93 5a 85 3f 69 d5 88 3f
       1.0519878 0.8992843 1.0418266 1.0690128
000160 24 28 71 3f a5 28 81 3f de d4 6a 3f d1 d2 81 3f
       0.94201875 1.0090529 0.9173106 1.0142461
000170 f8 84 89 3f 19 96 87 3f f6 bb 87 3f ce 0f 6e 3f
       1.0743704 1.0592681 1.0604236 0.92992866
000180 b4 28 82 3f 2c fa 84 3f 6b ea 84 3f 40 32 74 3f
       1.0168672 1.0388846 1.0384039 0.95389175
000190 70 7e 6e 3f a8 9a 76 3f 7d f2 80 3f e5 ca 81 3f
       0.9316168 0.96329737 1.0074002 1.0140043
0001a0 e7 63 8a 3f 74 b7 91 3f 27 be 7a 3f d9 80 80 3f
       1.0811738 1.138411 0.979464 1.0039321
0001b0 fc 0b 81 3f 5b 5d 74 3f 4d 0f 84 3f cd 97 88 3f
       1.0081782 0.9545495 1.031717 1.0671326
0001c0 d7 8a 8f 3f fc a6 71 3f 04 7f 8d 3f 3c a9 8a 3f
       1.1214246 0.9439542 1.1054387 1.0832896
0001d0 6f c5 67 3f 92 a4 81 3f ca c5 69 3f 2a 9c 8a 3f
       0.90535635 1.0128348 0.9131743 1.0828907
0001e0 78 54 7f 3f bb 1e 75 3f 70 4b 82 3f 0b 09 7e 3f
       0.99738264 0.95750016 1.0179272 0.9923255
0001f0 3b a8 77 3f f5 9f 83 3f 15 b7 80 3f 23 39 87 3f
       0.96741074 1.028319 1.0055872 1.0564312
000200 11 7a 66 3f 2c 08 83 3f 44 de 6c 3f 3e 96 74 3f
       0.9003001 1.0236869 0.9252665 0.9554175
000210 e3 5e 7d 3f af f5 86 3f 8d 62 81 3f 18 7a 7f 3f
       0.9897291 1.0543727 1.01082 0.99795675
000220 14 e4 7e 3f 92 dc 89 3f 11 8e 78 3f a5 9b 8b 3f
       0.9956677 1.0770438 0.97091776 1.0906874
000230 ca 0e 81 3f cc a5 8f 3f 6f 83 71 3f 44 84 8a 3f
       1.0082638 1.1222472 0.94341177 1.0821614
000240 26 1a 6e 3f 56 79 72 3f b7 fd 80 3f 59 5f 66 3f
       0.9300865 0.94716394 1.0077428 0.8998924
000250 93 b4 8b 3f e3 c1 70 3f 1a 29 80 3f 2d 37 7f 3f
       1.0914482 0.9404585 1.0012543 0.99693567
000260 73 98 79 3f d3 30 65 3f 7a 9c 6d 3f c9 03 6a 3f
       0.97498244 0.89527625 0.9281689 0.91412026
000270 de 5b 88 3f 72 31 76 3f cf 73 87 3f cd a7 5d 3f
       1.0653036 0.961692 1.0582217 0.8658417
000280 47 bf 78 3f 7f 6e 84 3f a5 d2 82 3f 36 67 81 3f
       0.97166866 1.0346221 1.0220534 1.0109622
000290 f4 b0 75 3f 65 a6 78 3f 26 9e 70 3f 12 cd 7b 3f
       0.95973134 0.971289 0.93991315 0.9835979
0002a0 3c 5d 8d 3f 6b 03 7f 3f 5f 95 81 3f 94 1e 65 3f
       1.1044078 0.9961459 1.012371 0.89499784
0002b0 6a ee 6f 3f 3f 28 86 3f d0 12 83 3f 1b 46 80 3f
       0.93723166 1.0481032 1.0240116 1.0021394
0002c0 81 55 62 3f 24 91 8f 3f 7a 44 6e 3f 12 4a 8a 3f
       0.8841172 1.1216168 0.93073237 1.0803854
0002d0 b2 ac 83 3f 69 d2 89 3f 85 8d 78 3f 6b e0 48 3f
       1.0287077 1.0767337 0.9709094 0.78467435
0002e0 44 f8 88 3f 12 48 68 3f a5 8c 62 3f 8b c8 78 3f
       1.0700765 0.9073497 0.88495857 0.97181004
0002f0 ea fd 8f 3f 0c e5 81 3f 1a 04 74 3f a0 95 6c 3f
       1.1249363 1.0148025 0.9531876 0.9241581
000300 34 74 73 3f e9 63 8a 3f a8 1c 85 3f 16 0d 69 3f
       0.95099187 1.081174 1.039937 0.9103559
000310 da b2 80 3f ff 3b 71 3f 2a e4 81 3f d0 36 62 3f
       1.0054581 0.9423217 1.0147755 0.8836489

bias f4 [200]
000000 f4 d1 74 bd de 3d 08 3e 80 3c 86 bd 6f 67 c3 bd
       -0.05977054 0.1330485 -0.06554508 -0.09541213
000010 3d 1a 60 3d 87 68 a3 bc 1e 14 48 bd 37 6c af 3b
       0.054712523 -0.019947303 -0.04884731 0.0053534764
000020 7c 35 be bd 21 2c b8 bc 47 1e a3 3d 5f 62 87 bc
       -0.09287545 -0.02248198 0.07964759 -0.0165264
000030 93 48 35 bd ae 22 89 3c 65 fc 2a 3d a0 60 4c bd
       -0.044258665 0.01674017 0.04174461 -0.049896836
000040 c8 54 a1 bd 46 86 37 3b c1 00 43 bd 67 6a f5 bd
       -0.07877499 0.0028003617 -0.04760814 -0.11983185
000050 8c a7 4b bd 2f e2 a5 3d e0 d2 67 3d 44 8a 40 3d
       -0.049720332 0.08099782 0.05659759 0.04700686
000060 13 49 c1 bd 73 ea fe bc 04 a4 29 be a2 20 5f ba
       -0.09437766 -0.031117653 -0.16566473 -0.00085116376
000070 e6 96 b6 bc 23 5e c6 3d 28 66 6c 3c 12 6b ad bc
       -0.02228875 0.09685924 0.014428653 -0.02116922
000080 9a 96 06 3d 80 8c d1 3d de ef 6b bd 9d 63 bd 3c
       0.03285847 0.102318764 -0.057601802 0.023118788
000090 be 19 bf ba 3f 07 ec bd e8 01 0d 3e c8 b2 c5 3d
       -0.0014579815 -0.115248196 0.13770258 0.096532404
0000a0 f9 ba be 3d 16 42 df 3b 50 c4 4c bd 3a 89 1a bb
       0.09313006 0.006813298 -0.049991906 -0.0023580329
0000b0 83 1b c5 bd 95 27 ab bd 0c 8b 1b bd 8d c2 65 bd
       -0.09624388 -0.08357159 -0.037974402 -0.05609374
0000c0 74 02 83 3d 64 d6 d9 3c b6 36 ab bd 38 7b ca bc
       0.06396952 0.026591487 -0.08360045 -0.024716958
0000d0 29 d0 b5 3d 83 46 02 be 30 c9 48 bb bf 03 99 3d
       0.08877594 -0.1272221 -0.0030637495 0.07471418
0000e0 5b bc bf 3d 86 1b 03 be 89 26 81 bc f4 67 a9 bb
       0.09362098 -0.12803468 -0.015765445 -0.005169863
0000f0 30 27 66 3c fb d8 87 3c f1 57 4b 3c 29 b0 16 bc
       0.014047429 0.016582957 0.012411104 -0.009197273
000100 2c 55 ad 3d ab f4 d6 bd 1f 4c 42 3d 62 e4 ae bd
       0.08463511 -0.104958855 0.047435876 -0.08539654
000110 cd 13 54 bd 49 c0 1e bd 26 c9 b5 3b e3 f8 a8 3d
       -0.051776696 -0.038757596 0.0055476604 0.082505964
000120 74 1b 0b 3e b9 a1 f7 bc e9 42 09 be c7 5d 02 bd
       0.13584691 -0.030228483 -0.1340443 -0.031827714
000130 46 2a de bd 87 cb f5 bd cb 9b 9b bc 13 a1 76 3d
       -0.10847907 -0.120017104 -0.018995186 0.060212206
000140 6a 4e 19 3d 10 89 b5 3d 46 0c 40 3e 26 fb 86 3d
       0.037428297 0.08864033 0.18754682 0.065908715
000150 45 b2 a1 bd 78 35 9a 3d 78 cd e9 bd 76 d8 16 be
       -0.0789533 0.075297296 -0.11416143 -0.14731011
000160 13 3a 9f bd 3f 7d c1 bd a1 b0 10 3c 4d 8e 56 bd
       -0.07774749 -0.09447717 0.008831174 -0.052381802
000170 47 bc 02 be 51 8e 8c bd 88 e3 ed bd d1 d6 b7 3d
       -0.12767135 -0.06863082 -0.11615664 0.0897652
000180 80 ec 7c bd 69 5e d3 bd f2 13 3e bd b2 81 2b bd
       -0.06174898 -0.10320742 -0.04640574 -0.041871734
000190 0f 62 49 bd 78 fa 66 3d 40 ce 34 bd 75 bf 27 be
       -0.04916578 0.05639121 -0.044142008 -0.16381629
0001a0 84 e1 bf bd 02 3c e6 bd 26 27 18 3e a2 e9 9e 3a
       -0.093691856 -0.11241914 0.14858684 0.0012124071
0001b0 f4 4d 8c bc bd e9 c2 3c de 30 7e 3c ec 77 e6 bd
       -0.017127015 0.023793096 0.0155145805 -0.11253342
0001c0 51 47 b9 bd ed 67 23 3c f7 af bb bc 98 e7 0e be
       -0.09046806 0.009973508 -0.022911055 -0.13955534
0001d0 ba f4 ba 3c 08 8e f9 bd ac 91 09 3e 10 12 f5 bd
       0.022821773 -0.121852934 0.13434476 -0.11966336
0001e0 58 79 c2 3d 7d d8 4c 3d 40 71 10 bd 5d e6 84 3d
       0.09495801 0.050011147 -0.035264254 0.06489251
0001f0 72 a3 14 be 8b c5 27 3d b0 de 57 bd 21 47 d1 bc
       -0.14515474 0.040959876 -0.052702606 -0.025546612
000200 56 39 be 3d 7d 85 95 3d 99 53 c2 bd 9d 9a 02 3e
       0.0928828 0.073008515 -0.09488601 0.12754293
000210 80 47 85 bd b1 01 67 3d 43 b4 09 3e e1 60 a8 3d
       -0.06507778 0.056398097 0.1344767 0.08221603
000220 0d ab 81 bd 87 46 70 bd 1e d5 9c 3d 44 45 fc bd
       -0.063314535 -0.05866101 0.076578364 -0.12317899
000230 f2 54 d4 bc 60 50 00 3d cf ac a4 3d 6f b9 1f 3d
       -0.025919411 0.03132665 0.08040773 0.038995203
000240 49 ef 07 3d 97 f5 d0 bd 93 fe 34 3e f6 ac 15 3d
       0.033187184 -0.102030925 0.17675237 0.0365419
000250 ac 57 91 bd 1b a3 4f 3c 9d 8e f6 bc 65 0b 85 3d
       -0.070968 0.012673165 -0.0300973 0.06496314
000260 3f bd 0d 3d ea c5 92 3d 11 c6 a0 bb 55 a0 18 ba
       0.034604307 0.07166655 -0.004906424 -0.0005822231
000270 1f 87 4b bd 38 7b ea bd cd 9a c4 bd 4d 9a 34 3c
       -0.04968941 -0.11449283 -0.095998384 0.011023116
000280 e0 fe 7a bb 1d 22 db bd 37 d1 e7 bd ac c5 9e bc
       -0.003829889 -0.10699866 -0.113192014 -0.019381367
000290 8a 6d 11 be 5e ae 24 bd fa 41 4b bb 10 e2 11 3d
       -0.14201942 -0.040205352 -0.0031014667 0.03561598
0002a0 99 d1 c4 bd 91 d7 0c be 02 3f 09 3d 27 98 5f 3d
       -0.0961029 -0.13754107 0.033507355 0.054588463
0002b0 9c 91 9a bb 34 65 03 3d 87 03 cf 3c 5f 59 9a 3d
       -0.004717065 0.032078937 0.025270237 0.075365774
0002c0 a8 3f 51 3d 28 99 5e bd f8 8c 21 bd d8 8b 1a be
       0.051086098 -0.05434528 -0.03944108 -0.15092409
0002d0 a3 d8 22 be c2 52 c1 bc ae 67 54 bc 27 5e ab bd
       -0.15902953 -0.023599032 -0.012964172 -0.083675675
0002e0 65 6e 22 be 7c 97 e4 ba 7d 8e 76 3d 80 1f 9b bd
       -0.15862425 -0.0017440165 0.06019448 -0.075743675
0002f0 6c 0b 21 be ff 16 d9 bd d6 14 be bd 63 87 44 bd
       -0.15727013 -0.10600089 -0.09281318 -0.047980677
000300 3a b7 09 3e ec 26 b1 bb 03 b3 e5 bd 26 4c 8b 3d
       0.13448802 -0.005406251 -0.112157844 0.068016335
000310 0d d9 25 3c 27 57 c2 bc eb a4 b4 3d 49 06 d5 3d
       0.01012255 -0.023723198 0.08820518 0.104015894

running_mean f4 [200]
000000 13 88 51 3e bf 2d 7c 3e 65 1e 6b 3e ce e6 d0 3e
       0.20462064 0.24626826 0.22960813 0.4080109
000010 7d 31 3e 3e 51 bf be 3e 50 74 b0 3e 82 91 51 3e
       0.18573566 0.37255338 0.3446374 0.20465663
000020 77 f4 1f 3f 7e 22 df 3e bb 94 90 3e 62 6a 14 3f
       0.624824 0.43581003 0.28238472 0.5797483
000030 90 a4 56 3e e5 b5 72 3e 72 2d a9 3e 79 5b 09 3f
       0.20961213 0.237022 0.33042485 0.536552
000040 b2 0a 15 3f 20 94 e6 3e 12 55 e0 3e be 17 19 3f
       0.58219445 0.45034885 0.43814903 0.5980185
000050 46 7a a3 3e ba 9b 81 3e 48 0e 9a 3e bd 30 50 3f
       0.31929225 0.25314122 0.3008902 0.8132437
000060 db c5 32 3f 62 b8 34 3e 4e e7 12 3f 21 92 74 3e
       0.69833153 0.17648461 0.5738419 0.23883869
000070 3e e3 98 3e ae 84 94 3e 81 c6 ee 3e 3a da d6 3e
       0.29860872 0.29007477 0.4663582 0.4196337
000080 6e 32 e4 3e 12 ee 9e 3e a8 42 af 3e 44 5c 27 3f
       0.44569725 0.31041008 0.34230542 0.6537516
000090 54 02 af 3e 75 9c 36 3f a7 c9 92 3e 6c a5 31 3e
       0.34181464 0.71332484 0.28669474 0.1734826
0000a0 5f b1 86 3e 1d cf b1 3e 80 9e 51 3e d2 67 df 3e
       0.26307198 0.34728327 0.20470619 0.43633896
0000b0 3a 58 1d 3f 57 8a e3 3e 30 69 3d 3f 0e d6 14 3f
       0.6146275 0.44441482 0.7398863 0.5813912
0000c0 ca 2f 4a 3e ee 22 8e 3e 69 8c 14 3f 16 5f 7a 3e
       0.19744793 0.27761024 0.5802675 0.24450335
0000d0 57 c3 a8 3e ae c5 b5 3e 32 d7 46 3e a1 a6 dd 3e
       0.32961532 0.3550238 0.19418028 0.4329119
0000e0 b2 49 47 3e 35 e7 e9 3e aa 73 bd 3e 46 e9 23 3f
       0.19461706 0.4568421 0.37002307 0.6402782
0000f0 00 5e f9 3e 74 ea 03 3f b8 a7 79 3e 2f 6e 0f 3f
       0.4870453 0.5152962 0.24380386 0.560275
000100 3a 40 7e 3e 3d e6 1c 3f e8 02 3d 3e 64 27 48 3f
       0.24829188 0.61288816 0.1845814 0.78185105
000110 e6 e6 89 3e 3c 7a ff 3e 5f f5 35 3e 00 74 cc 3e
       0.26933974 0.49897945 0.17769383 0.3993225
000120 00 ca 94 3e b1 5d 99 3e d4 17 84 3e 72 23 54 3e
       0.29060364 0.29954293 0.2579943 0.20716646
000130 b5 4f 30 3f 7f e3 30 3e ba 61 2d 3f 01 be b3 3e
       0.68871623 0.17274283 0.67727244 0.351059
000140 11 50 e3 3e c8 4a e6 3e da 05 94 3e 28 d3 37 3e
       0.44397023 0.4497893 0.28910714 0.17951643
000150 0c 59 06 3f bd f9 a6 3e 9a 1f 95 3e b2 eb 14 3f
       0.52479625 0.3261241 0.29125673 0.5817214
000160 27 93 af 3e 41 17 bf 3e 7d 96 e7 3e f2 bf 17 3f
       0.34291956 0.3732243 0.45232 0.5927726
000170 2a 29 18 3f 46 5e fd 3e 4f f1 13 3f 79 ed 9e 3e
       0.5943781 0.49485987 0.5779008 0.31040552
000180 b6 99 f1 3e 15 70 1f 3f 19 47 0d 3f 27 04 06 3f
       0.47187585 0.622804 0.5518661 0.52350086
000190 d4 97 03 3f 7b 7c 71 3e dd 10 ec 3e 5b 39 1a 3f
       0.51403546 0.23582642 0.46106616 0.6024377
0001a0 ab b1 05 3f e0 37 00 3f f9 ac 8c 3e f6 1f e0 3e
       0.52224225 0.5008526 0.27475718 0.43774384
0001b0 a7 92 ca 3e b1 7a 34 3e 21 8c 2e 3f 86 f4 e9 3e
       0.39565012 0.17624928 0.6818257 0.4569437
0001c0 5f 2a 3e 3f 6f 65 07 3f 7a 6f 10 3f db 83 08 3f
       0.74283403 0.5288915 0.564201 0.53326195
0001d0 7d dc e0 3e 7c e1 8e 3e f6 6c 55 3e 67 30 25 3f
       0.4391822 0.27906406 0.20842347 0.6452698
0001e0 f4 86 61 3e 40 58 81 3e ee db 6a 3e 9d 84 f1 3e
       0.22024137 0.25262642 0.22935459 0.47171488
0001f0 db b8 ea 3d 51 a9 eb 3e 09 b2 93 3e 28 b9 4a 3f
       0.1146104 0.46027616 0.28846768 0.79188776
000200 50 fa f0 3e 29 e2 28 3f 2c 02 b0 3e 0f ff 9d 3e
       0.47065973 0.65970093 0.34376657 0.30858657
000210 e3 8f ea 3e 6e c6 35 3f 42 89 65 3e 6b bc d3 3e
       0.45812902 0.71005905 0.22415641 0.4135469
000220 88 ab 82 3e b8 61 1f 3f 2a 56 51 3e 02 b5 0d 3f
       0.25521493 0.6225848 0.20443025 0.5535432
000230 86 44 d1 3e 21 1e 3c 3e c4 dd 46 3e 54 f7 18 3f
       0.40872592 0.18370868 0.19420534 0.5975239
000240 73 2f 5c 3e ce 58 12 3f 1a ba 4a 3e 54 f0 11 3f
       0.21502475 0.57166755 0.19797555 0.57007337
000250 2e 57 42 3f 83 ed 4b 3e ff b2 07 3f 98 08 d8 3e
       0.75914276 0.19914822 0.530075 0.42194057
000260 cf db 52 3e 7f 36 8f 3e 08 f2 85 3e 4d 27 91 3e
       0.20591663 0.27971265 0.26161218 0.28350297
000270 5c 8d 1d 3f 0e f0 3b 3e df 9f 0d 3f 74 67 33 3e
       0.6154382 0.18353292 0.5532207 0.17519933
000280 cf 28 35 3e 82 fb 2a 3f b8 61 d9 3e af 12 c8 3e
       0.17691348 0.6679002 0.42457366 0.39076754
000290 74 46 c7 3e d2 1e 1a 3e b5 92 e6 3d a3 7c 51 3e
       0.3892094 0.1505082 0.11258451 0.20457701
0002a0 4c 57 2e 3f ae 1c 1c 3f ea 66 d3 3e 1a 0f 53 3e
       0.68101954 0.6098126 0.41289455 0.2061123
0002b0 a3 e3 11 3f 24 29 ee 3e 0b a7 03 3f 44 9b b8 3e
       0.5698797 0.46515763 0.5142676 0.36055958
0002c0 8f 1b 86 3e f6 0b 13 3f cf ec 82 3e d0 97 17 3f
       0.261929 0.57440126 0.25571296 0.5921602
0002d0 b2 75 bc 3e 54 a2 20 3f 9a 59 05 3f 4c aa ac 3e
       0.36808544 0.62747693 0.52089846 0.33723676
0002e0 a0 52 15 3f a0 b4 55 3e 87 f8 97 3e 56 12 ce 3e
       0.583292 0.20869684 0.296818 0.40248364
0002f0 ee b0 f9 3e 0b d9 91 3e b0 01 da 3e a1 d4 12 3f
       0.487678 0.28485903 0.42579412 0.57355696
000300 bb 85 26 3e 46 7a 11 3f 85 3a 09 3f be 69 6e 3e
       0.16261952 0.568272 0.5360492 0.23282525
000310 43 c1 83 3e 40 3b c8 3e ad 94 f5 3e 8d ea c2 3e
       0.25733384 0.39107704 0.47964993 0.38069573

running_var f4 [200]
000000 12 3c fd 3d d6 fc ef 3d 34 e5 02 3e bb c9 01 3f
       0.12364973 0.117181465 0.12782747 0.5069844
000010 2c 28 d2 3d a0 60 e7 3e 09 bf d1 3e 4f e3 72 3e
       0.102615684 0.45190907 0.4096606 0.23719524
000020 c9 a0 84 3f 43 b9 8c 3e aa 61 52 3e e8 96 fd 3e
       1.0361568 0.27485093 0.20545068 0.49529195
000030 80 e1 18 3e c4 8e 68 3e 8f 43 60 3e 1b 93 3f 3f
       0.14929771 0.22710711 0.21900772 0.7483384
000040 71 52 68 3f 0c 56 07 3f 0d cf f8 3e ca 27 80 3f
       0.90750796 0.5286567 0.48595467 1.0012143
000050 6c b5 c0 3e c7 5f a2 3e 85 3d ab 3e e6 b4 5f 3f
       0.37638414 0.31713697 0.33445373 0.87385404
000060 a9 bb 95 3f 8b 32 0a 3e 4c d6 69 3f 13 e7 6a 3e
       1.1697894 0.13495843 0.91342616 0.2293971
000070 2d fa 59 3e b0 ed a0 3e 4a 19 b4 3e 4d 58 ef 3e
       0.2128684 0.3143134 0.35175544 0.46747056
000080 93 65 a6 3e 72 e3 74 3e 6a 4e 27 3e 06 49 f6 3e
       0.3249937 0.23914889 0.16338506 0.48102587
000090 2f e3 cf 3e c4 25 a5 3f c3 5b 45 3e c1 82 a3 3d
       0.40603015 1.290215 0.19273286 0.07983924
0000a0 c9 15 04 3e 16 0d ca 3e 3f 37 09 3e 92 8b 0c 3f
       0.12898935 0.3946311 0.13399981 0.5490047
0000b0 1b 91 8e 3f f3 ed 00 3f b2 ea 3b 3f 13 8f 56 3f
       1.1138033 0.5036308 0.7340499 0.83812064
0000c0 2d 0b d6 3d 0d 59 4b 3e be 62 e9 3e d6 85 14 3e
       0.1045135 0.19858189 0.45583147 0.1450418
0000d0 de 37 3b 3e 48 ac d7 3e 74 66 24 3e 2e 55 8c 3e
       0.1828303 0.42123628 0.16054708 0.27408737
0000e0 73 99 ae 3d fe 81 23 3f 77 a7 51 3e a1 44 06 3f
       0.08525362 0.6387023 0.20474039 0.5244847
0000f0 6d 6f 9f 3e 96 33 36 3f 4e 8e 38 3e ba 18 cf 3e
       0.311397 0.71172464 0.18023035 0.40448552
000100 83 c6 09 3e d1 52 80 3f 8c 3a ca 3d ee ab c4 3f
       0.13454632 1.0025274 0.09874448 1.5364969
000110 29 54 9b 3e c2 ae 26 3f 84 44 fb 3d 63 3f 82 3e
       0.30337647 0.6511041 0.12268928 0.25438985
000120 14 27 1d 3e 7c a6 80 3e 94 9a 60 3e 6b 33 e9 3d
       0.15346938 0.25127017 0.21933967 0.1138676
000130 81 ef 9d 3f 2c 2c e1 3d 93 aa 14 3f 83 08 b5 3e
       1.2338716 0.10994753 0.58072776 0.35358056
000140 89 a2 96 3e 4a f4 79 3e 73 af 12 3e 2f 0a 03 3e
       0.2942088 0.24409595 0.14324741 0.12796853
000150 d8 ac 41 3f 81 d5 32 3e 89 b7 a3 3e 80 03 84 3f
       0.75654364 0.17464258 0.31975964 1.0313568
000160 c6 fa ba 3e 63 8d d1 3e 6a b1 a7 3e 13 bd 72 3f
       0.3651945 0.40928182 0.32752544 0.94819754
000170 7f c2 66 3f 63 2c 24 3f bf 8b 66 3f c1 ed 59 3e
       0.9014053 0.6413023 0.90056986 0.21282102
000180 ce 42 20 3f d9 e5 7a 3f 32 1f 37 3f ba b8 27 3f
       0.62601936 0.9800697 0.71531975 0.65516245
000190 29 f8 2d 3f 9c 3d 44 3e d3 11 0b 3f 4a bf 8d 3f
       0.6795679 0.19164127 0.5432407 1.1074002
0001a0 7e 18 4a 3f ad 20 30 3f b5 c2 3d 3e a3 4e 90 3e
       0.7894362 0.6879986 0.18531306 0.28184995
0001b0 6f a0 dd 3e 28 e4 c5 3d 29 ce 15 3f fc 64 15 3f
       0.43286464 0.09662658 0.585177 0.58357215
0001c0 1f 24 a9 3f a5 bb 26 3f 41 85 ec 3e 78 2d 5c 3f
       1.3214148 0.6513007 0.46195415 0.8600688
0001d0 c1 5b e7 3e c1 26 80 3e 43 92 21 3e 13 ab 8e 3f
       0.4518719 0.25029567 0.1577845 1.1145958
0001e0 f6 dc 05 3e b9 42 11 3e a5 94 2e 3e ca 57 a5 3e
       0.13072571 0.14185609 0.17048891 0.3229354
0001f0 af 7d 84 3d 91 b5 a0 3e df 01 b5 3e 8e 50 3b 3f
       0.06469285 0.31388524 0.3535299 0.7316979
000200 76 4c b4 3e 42 45 0d 3f 2b 4e a1 3e c5 67 51 3e
       0.35214585 0.55183804 0.3150495 0.20449741
000210 84 1d 1d 3f f8 c6 18 3f 9e 33 c8 3d c4 c8 91 3e
       0.6137316 0.596786 0.0977547 0.28473485
000220 58 fa 10 3e d3 01 80 3f c2 4b fb 3d b3 9e 63 3f
       0.14157999 1.0000557 0.12270309 0.8891403
000230 8b af 9c 3e 54 73 eb 3d cb 92 50 3e 40 2c 00 3f
       0.3060268 0.114966065 0.20368497 0.5006752
000240 d4 7a de 3d 39 09 6a 3f 1b c4 10 3e ad 73 e6 3e
       0.10863271 0.9142032 0.14137308 0.4501013
000250 fd d6 af 3f 00 c5 0c 3e 85 36 c7 3e b8 a5 85 3e
       1.3737484 0.13747025 0.38908783 0.26102996
000260 6a 65 e3 3d 5f 85 83 3e 55 ed 85 3e 39 4b 24 3e
       0.111033276 0.25687692 0.26157632 0.1604432
000270 55 ff 60 3f dc f7 bd 3d 78 0e 39 3f c5 6f b6 3d
       0.87889606 0.09275791 0.722877 0.08908037
000280 ce ab c3 3d 93 14 9a 3f 39 21 08 3f ea f0 dd 3e
       0.095542535 1.2037529 0.53175694 0.43347865
000290 59 f6 0f 3f fc 25 ef 3d 0c b8 62 3d 72 a7 07 3e
       0.5623527 0.11677167 0.055351302 0.13247469
0002a0 ca eb a1 3f 8f 9c 82 3f f2 2c 83 3e 30 b3 06 3e
       1.2650082 1.0204028 0.25620228 0.13154292
0002b0 83 1a 46 3f 41 4e bf 3e 28 d0 a7 3e 2f f5 76 3e
       0.77384204 0.3736439 0.32775998 0.24116968
0002c0 91 ea 39 3e 12 ee 57 3f cb a9 3e 3e 7c ea 87 3f
       0.18155886 0.8434764 0.18619458 1.0618434
0002d0 88 b5 fe 3e 9f cd 17 3f dc 7f 27 3f 7b 88 b1 3e
       0.49747872 0.5929813 0.6542947 0.3467444
0002e0 f9 cf 7d 3f 9b 09 5a 3e 55 ad 17 3e 77 4c f0 3e
       0.99145466 0.21292727 0.14812215 0.46933338
0002f0 3e 35 20 3f c9 d8 82 3e a0 4b 14 3f 9a d5 ec 3e
       0.6258124 0.2555602 0.57927895 0.46256715
000300 af 2d a8 3d dd 78 f6 3e f9 f1 72 3f 80 de fc 3d
       0.082118385 0.48139086 0.9490047 0.12347126
000310 c9 f2 2d 3e dc 6c cb 3e 1d cb b0 3e 21 25 ea 3e
       0.16987146 0.3973149 0.34529963 0.45731452

weight f4 [100, 200]
000000 7a 5a 93 3d 9f c5 18 bc 3a fa 31 3d 2c 32 54 bb
       0.071949914 -0.00932446 0.043451525 -0.0032378538
000010 da 1b c6 3c 36 12 ce 3c 4f 3e 93 bd d2 e4 55 3d
       0.024183203 0.025155168 -0.07189619 0.052220173
000020 04 ae 92 bd 27 47 3a bd a2 ec 46 bd f9 10 1d 3d
       -0.07162097 -0.045478012 -0.048565514 0.038346265
000030 58 f4 a9 bc ce 0a d2 bd c1 dd 4d bd 33 e4 1c bc
       -0.020746395 -0.10255967 -0.05026031 -0.009575891
000040 b1 d2 d9 bd 0b f1 06 bd b1 0a 21 bd f5 d1 63 bc
       -0.10635889 -0.03294472 -0.039316837 -0.013905038
000050 2e 23 69 bd 01 8a d4 bd 41 b4 32 3d 97 95 1f bc
       -0.056918316 -0.10377885 0.043628935 -0.009740255
000060 79 20 f9 bc be bc a3 3d 6e 08 8f bd b8 b6 a8 bb
       -0.030410992 0.07994984 -0.0698403 -0.005148735
000070 b7 2d bd 3c 95 d0 6f bd 7c 8d bd 3c 13 f3 c2 bd
       0.023093088 -0.05854853 0.023138754 -0.09519019
000080 15 67 0c bd fc 67 a7 3d 16 e7 05 bc ec cb ae 3d
       -0.034277994 0.0817413 -0.008172771 0.08534989
000090 70 fb 44 bd 51 af 0c 3c 81 88 35 bd 21 38 7a bc
       -0.048091352 0.008586721 -0.044319633 -0.015272171
0000a0 79 67 bc 3c 27 d5 54 bd 91 b5 49 3c 29 71 f2 3b
       0.022998558 -0.05196109 0.012311355 0.0073987436
0000b0 45 4d 6e bc a7 3a d6 bd 3e f9 d6 3b b8 06 44 bc
       -0.01454479 -0.10460406 0.0065604737 -0.0119644925
0000c0 1d 33 38 3d 29 6f 45 bc df 75 52 3d f3 45 09 bd
       0.04497062 -0.012050428 0.051381942 -0.033513974
0000d0 bc 8c bc 3c b9 1c 39 bc 7c ba f8 bc 6f d3 cc 3d
       0.023016326 -0.011298352 -0.03036236 0.10001265
0000e0 6e 12 fb 3c 3a 83 c7 bd 00 e4 3c 3d 77 6d 7d 3b
       0.030648436 -0.09741826 0.046115875 0.0038669982
0000f0 71 55 bb 3d 19 98 6e bd a9 f6 60 bb bd 80 c2 3d
       0.09147156 -0.05825052 -0.0034326708 0.09497211
000100 ca 1d 85 bd c8 67 55 3c 99 11 4a 3c a2 34 e9 bc
       -0.064998224 0.013025232 0.012333297 -0.02846748
000110 b3 ff 9d bb 2f bd 9b bc ab 6a 28 3d d1 d8 6b bd
       -0.0048217415 -0.019011108 0.04111735 -0.05757982
000120 86 3e 22 3b 1a 01 06 3d ad e1 62 bd 67 51 36 bd
       0.0024756505 0.032715894 -0.055391002 -0.044511225
000130 4e 83 80 bd 21 ac 98 bd 7d 8f 3c 3d 80 22 a5 bd
       -0.062750444 -0.07454706 0.04603528 -0.08063221
000140 08 32 ef bb c8 0d 58 3d f7 ac 53 3d ec f9 3c bd
       -0.0072996654 0.052747518 0.051678624 -0.04613678
000150 72 db 89 3c 43 00 87 bd b5 3d 5e 3d 0b 2a 4c 3b
       0.016828272 -0.06591847 0.054258067 0.003115299
000160 69 0e 3c 3d 49 6f 73 bd 50 7d 6f 3c 01 5d c0 bc
       0.04591218 -0.0594323 0.014617279 -0.023481848
000170 a9 d8 6d bd 5f 5d c6 bd fe 55 8c 3c 5d cb 24 bd
       -0.05806795 -0.09685778 0.017130848 -0.040233005
000180 d3 79 99 bd 9b 8a 42 3c 51 90 d7 bc e3 fe 3f 3d
       -0.07493939 0.011873866 -0.026313933 0.04687394
000190 43 87 0b 3d 30 40 1f bd ce 4c b4 3c e4 80 5d bd
       0.034064543 -0.038879573 0.02200928 -0.054077998
0001a0 6d 76 fc bc 98 9b b5 bd a6 6d 8d bb d8 15 54 3c
       -0.030818189 -0.08867568 -0.0043160496 0.012944661
0001b0 b1 cd d2 bc 90 3a 29 bb f9 d4 24 bc 08 d5 40 bb
       -0.025732847 -0.002582226 -0.010060542 -0.0029423852
0001c0 31 14 80 bd 28 93 b9 bc ac 0b 92 3d 19 f9 dd bc
       -0.06253851 -0.022653177 0.071311325 -0.027096318
0001d0 bb 73 47 bd 44 f8 c2 bd 13 1f bd bd 3d 07 a3 bd
       -0.048694354 -0.09520009 -0.092344426 -0.07960365
0001e0 4c 29 7d bc 78 85 53 3c e1 b1 ef 3b a0 e3 e5 3d
       -0.0154517405 0.012910239 0.007314906 0.11225057
0001f0 19 a3 1c bd f6 86 34 3d 7d 68 d3 3c 09 00 2e 3d
       -0.03824148 0.04407402 0.02580666 0.042480502
000200 8d 49 4e 3d 6c 03 39 3d ec 74 35 3c 9f 48 ec 3d
       0.050363112 0.04516928 0.01107524 0.11537289
000210 90 44 2b bd 79 95 02 3e 87 4d 9e 3d 25 72 0a 3e
       -0.041813433 0.12752332 0.07729631 0.13520105
000220 76 d8 c4 bb ed df e4 bc c3 26 0f 3d 8a bc 24 bd
       -0.0060072495 -0.027938807 0.034949075 -0.040218867
000230 f6 e5 03 3d cd d1 19 3e 9b 5a 6b bd ea 39 82 3d
       0.03220173 0.15021439 -0.057459455 0.063587025
000240 51 de b5 bb b9 b3 a8 bd b2 c2 9c bd 20 e0 c1 3d
       -0.005550184 -0.082374044 -0.07654323 0.094665766
000250 06 fc ea bd b1 81 1f bd 70 d4 b2 3d e5 3a f3 bc
       -0.11473851 -0.038942043 0.087319255 -0.029691169
000260 cc 70 76 3d d8 35 bd bd 21 4d a8 3c ff a1 dc 3c
       0.060166165 -0.092387855 0.02054459 0.026932715
000270 1c 1b 3f bd 31 47 b8 3d 8f ad af bc 08 a2 96 3d
       -0.046656713 0.08997954 -0.021445064 0.07355124
000280 7f a8 a0 bc bb 15 24 bd 25 86 58 bd 27 56 08 bc
       -0.019611595 -0.040059786 -0.052862305 -0.008321322
000290 5a c0 a3 bb a3 33 2b 3d d6 ca 65 bd d1 39 f8 bc
       -0.0049972953 0.04179729 -0.056101643 -0.030301007
0002a0 4e 6b 60 bd bb e4 5b 3c 4c 3f 93 bd 0f 8f 5d bc
       -0.054789834 0.013421233 -0.07189807 -0.013522877
0002b0 14 9e 14 bd 23 47 97 3d 71 cf a6 3d b7 53 a3 bb
       -0.036283568 0.07386615 0.08145035 -0.004984345
0002c0 1a c6 66 3d 27 4a 53 bd 65 ef 65 bd 89 03 89 bd
       0.056341268 -0.05158439 -0.056136508 -0.066901274
0002d0 3e 9e 91 bc ba be 46 3d ab dc 6d bd 68 77 af 3b
       -0.017775651 0.048521735 -0.058071773 0.0053548105
0002e0 3d 25 a9 bb a2 72 f3 bc 6a 2a 42 bc a3 e5 4d bd
       -0.00516191 -0.029717747 -0.011850933 -0.050267827
0002f0 59 74 89 bd 5b bd 03 be b0 4c 84 bd d6 22 bd 3d
       -0.06711645 -0.12865202 -0.064599395 0.0923516
000300 c2 9c 5d 3d b9 64 de 3b 0b f4 10 bd 0c e0 a9 3d
       0.054104574 0.0067869094 -0.035388988 0.08294687
000310 dd 86 b3 bd c5 a5 62 bd fd 9c 07 bd 22 9e 73 3d
       -0.087659575 -0.05533387 -0.0331087 0.05947698
000320 3a c0 4b 3d a3 b3 79 3d fc da 86 3d 50 03 12 3d
       0.04974387 0.06096233 0.06584737 0.03564769
000330 eb 66 81 bc 11 a9 86 bb 16 88 86 3d 84 5d 86 3d
       -0.015796145 -0.0041095098 0.06568925 0.065608054
000340 bb 2a 9d 3d a9 a2 6f 3d 48 fd 8a bd 20 e5 df bc
       0.07674166 0.058504734 -0.06786591 -0.027330935
000350 f0 32 09 bc 43 2b 81 bd eb bb 5f 3d 73 a4 c5 3d
       -0.008373961 -0.0630708 0.054622572 0.09650507
000360 64 0b 6c 3d cb 3e 82 bc 35 93 0c 3d 57 ab 3e 3d
       0.05762805 -0.015899083 0.034320075 0.04655012
000370 51 38 c3 3d 09 8c 02 3d 02 9d f7 3b a2 fd e2 3b
       0.09532226 0.03187183 0.0075565586 0.006927208
000380 8f e5 ca 3d 6a f1 ac 3d 4c e7 cb 3c f1 43 cd bc
       0.09907066 0.084444836 0.024890564 -0.025056811
000390 da c3 b6 3d 03 88 70 3c 27 c0 2b bd d6 e8 20 bd
       0.089240745 0.014680865 -0.041931298 -0.03928455
0003a0 f3 b4 5f bd 46 15 8c 3d df 4a cb 3d bf 48 08 bd
       -0.054615926 0.06839995 0.0992639 -0.0332725
0003b0 6b b5 b9 3c d8 f5 43 3d 64 a5 f0 3c fd 27 bd bc
       0.022669515 0.047841877 0.02937574 -0.023090357
0003c0 1f 39 9c bd 28 55 6e 3d 24 5f 2a bd 1e 0f 84 bc
       -0.076280825 0.05818668 -0.04159464 -0.01612049
0003d0 29 5e 50 3c 2b 97 b4 3d a3 87 35 3d 6d b2 ba 3d
       0.012717762 0.088178955 0.044318806 0.09116063
0003e0 e5 1a 4f 3d fe 32 83 3d d9 f5 fa 3c 9b 7c 90 3d
       0.050562758 0.0640621 0.030634807 0.070550166
0003f0 7d 65 9c bc 6c b3 12 3e 2b 48 42 3d 25 f8 cc 3c
       -0.019091362 0.14326257 0.047432106 0.025020668
