AutogluonModels/ag-20250105_181830/ds_sub_fit/sub_fit_ho/models/NeuralNetFastAI_BAG_L2/S1F8/model-internals.pkl (torch, 279987 bytes, 27 tensors)

weight f4 [5, 4]
0	0x3b8ff995	0.004393766
1	0x3a933b8c	0.0011232956
2	0x3bd1d288	0.006403271
3	0x3b907402	0.0044083605
4	0x3bd9971f	0.0066403295
5	0xbb0388cb	-0.0020070549
6	0xbb98a5eb	-0.004658451
7	0xbaea59ab	-0.0017879506
8	0xbbbd049c	-0.0057683717
9	0xba5dd72e	-0.0008462545
10	0x3cc8e929	0.024525242
11	0xbcb0032b	-0.021485886
12	0xbbe2d46d	-0.006922296
13	0xbba4a038	-0.0050239824
14	0x3c306103	0.010765317
15	0xbbf71344	-0.0075401384
16	0xbc37fc4b	-0.011229585
17	0xbb9ed2ea	-0.0048469203
18	0x3c21975f	0.00986275
19	0x3c9093a2	0.017648522

weight f4 [6, 4]
0	0xbb0f4f8d	-0.0021867484
1	0xbb8e756d	-0.0043474943
2	0xba3f00be	-0.00072861824
3	0xb9b20ead	-0.0003396174
4	0x3cc22dbd	0.02370345
5	0x3c08c37c	0.008347388
6	0xbc2cbb63	-0.010542723
7	0xbc485d40	-0.012229264
8	0x39e311ee	0.00043310173
9	0x3cc8aff4	0.024497963
10	0x3caff4d7	0.021479053
11	0xbc126d5a	-0.008937204
12	0xbbcfb358	-0.006338518
13	0x3d21eb5b	0.039531093
14	0x3c9c2ced	0.019064391
15	0xbb7db690	-0.0038713552
16	0xbbc7b192	-0.006094166
17	0x3c4fbeda	0.01267978
18	0x3ba40f7f	0.00500673
19	0x3bae719d	0.0053236024
20	0x3cd24e5b	0.025672128
21	0x3cad8fe4	0.021186776
22	0x3ccc5020	0.02494055
23	0xbc998a1d	-0.018742615

weight f4 [6, 4]
0	0xbbb73f19	-0.0055922386
1	0x3baeae5f	0.0053308452
2	0x3b853b57	0.0040659118
3	0x3b81344b	0.0039430014
4	0xbc49671e	-0.012292651
5	0xbc31aaf2	-0.010843979
6	0x3c651d3e	0.013984023
7	0x3cd28acf	0.025700955
8	0xbc57260b	-0.013131629
9	0xbc148df7	-0.00906705
10	0x3d04d2f4	0.032427743
11	0xbc900953	-0.017582571
12	0xbb5669bb	-0.003271683
13	0xbceb906c	-0.02875539
14	0x3b3f3539	0.002917601
15	0x3c86aa64	0.01643867
16	0xbc3e837b	-0.011628027
17	0xbc7ed85a	-0.015554512
18	0x3ceb6a88	0.028737321
19	0xbc865304	-0.016397007
20	0xbc261fed	-0.010139448
21	0x3bc82b07	0.006108645
22	0x3c697ec7	0.0142514175
23	0xbc0c200b	-0.0085525615

weight f4 [6, 4]
0	0xbb193716	-0.002337878
1	0x3be79b16	0.007068048
2	0x3bbdeea3	0.00579627
3	0x3b2fb4f3	0.0026810735
4	0x3b2b06bd	0.0026096546
5	0x3cf56e3a	0.029959787
6	0xbd0579a3	-0.032586705
7	0xbc2317e9	-0.009954431
8	0xbb3711f9	-0.0027934297
9	0x3d088ff4	0.03334041
10	0xbced804f	-0.028991846
11	0x3c0564e7	0.008141733
12	0x3c12c62f	0.008958383
13	0xbb0ca83c	-0.002146258
14	0x3c848c7b	0.016180268
15	0xbc0e1264	-0.008671377
16	0x3ab32bd4	0.0013669678
17	0x3c9b2cbb	0.018942228
18	0xbcb511ee	-0.022103276
19	0xbb397ce9	-0.0028303212
20	0xbbbf4cc9	-0.005838011
21	0x3cd3bc15	0.02584652
22	0xbb205963	-0.002446734
23	0x3a9e6964	0.0012085852

weight f4 [6, 4]
0	0x3bb13152	0.005407491
1	0x3c7bf5bb	0.015378411
2	0x3c31cf1f	0.010852604
3	0x3c4c1011	0.012455002
4	0xba2caa0e	-0.00065866194
5	0x3c9cb40b	0.01912882
6	0x3c9ca2e2	0.019120637
7	0x3c9b66b1	0.018969866
8	0x3c23dd1d	0.010001448
9	0x3cac44c4	0.021028884
10	0xbadf63d6	-0.0017043303
11	0x3cbdf15e	0.023186382
12	0x3b03eccc	0.0020130156
13	0xbc633235	-0.013866951
14	0xbd4007a4	-0.046882287
15	0xbc689020	-0.014194518
16	0xbc8076cd	-0.015681649
17	0xbab7b9d8	-0.0014017178
18	0xbce3999e	-0.027783211
19	0xbb279273	-0.0025569468
20	0x3c0de75e	0.008661119
21	0xbb874e4b	-0.0041292063
22	0x3be3399e	0.0069343587
23	0x3d099bce	0.033595853

weight f4 [6, 4]
0	0x3b277953	0.0025554493
1	0x3c492e02	0.0122790355
2	0xbb9ef5d8	-0.004851084
3	0x3b9484b4	0.004532421
4	0xbbe7bc77	-0.0070720273
5	0xbc6f8aaa	-0.014620462
6	0xbcabf13c	-0.020989053
7	0x3c69e2b1	0.014275239
8	0xbc2cdc1e	-0.010550527
9	0xbc92344e	-0.017847206
10	0xbca618ea	-0.020275552
11	0xbbdf1d1b	-0.0068088896
12	0x3c21dd4d	0.009879422
13	0xbc1abe32	-0.00944476
14	0x3a2e3680	0.00066456944
15	0x3c9ca7d7	0.019123001
16	0xbca27598	-0.019831464
17	0xbd092500	-0.03348255
18	0xbbac4394	-0.0052570794
19	0x3ca89451	0.020578535
20	0x3b1ea52a	0.0024207332
21	0xbbb419a1	-0.0054962193
22	0xbb4670c7	-0.0030279623
23	0xbc3f20d6	-0.011665544

weight f4 [6, 4]
0	0xbbb2cea8	-0.0054567643
1	0xbbce58cc	-0.0062972065
2	0xbbcfcfa9	-0.0063418937
3	0x3c1f92b8	0.00973957
4	0x3cd7f2b5	0.026360849
5	0xbcd0dec0	-0.02549684
6	0x3d27dc22	0.04098142
7	0xbd1519f6	-0.03640171
8	0xbc97f596	-0.018549722
9	0x3ca8787e	0.020565268
10	0xbc28f11f	-0.010311394
11	0xbc25b467	-0.010113812
12	0xb9d6bfab	-0.00040960065
13	0x3ba72e71	0.005101972
14	0x3ca34cca	0.019934077
15	0xb7106160	-8.605741e-06
16	0xbc458608	-0.012055881
17	0x399d403e	0.00029993238
18	0x3c488b7d	0.012240288
19	0x3b23141f	0.002488382
20	0x3c71a19f	0.014748006
21	0xbc4d905d	-0.012546626
22	0x3ca746cf	0.020419506
23	0xbc69e420	-0.014275581

weight f4 [6, 4]
0	0x3b3577de	0.0027689855
1	0xbc20a6b6	-0.009805372
2	0x3c1185dc	0.008882012
3	0x3c807052	0.015678558
4	0x3c1945e1	0.009355039
5	0xbbcca933	-0.006245756
6	0x3c7fc194	0.015610117
7	0xbb81fa01	-0.0039665704
8	0x3c6fbf2f	0.014632984
9	0x3bf09539	0.0073420075
10	0x3c636560	0.01387915
11	0xbc4de1b2	-0.012566017
12	0x3cdf5e3a	0.02726661
13	0xbcb60000	-0.022216797
14	0x3cf5bcfb	0.02999734
15	0xbc6244b9	-0.01381033
16	0x3cc24cce	0.023718264
17	0x3c08d122	0.008350642
18	0xbb89c3ca	-0.004204248
19	0xbc3477bf	-0.011014878
20	0x3cc4957e	0.023997065
21	0xbbb6b625	-0.0055759125
22	0xbabd56d2	-0.001444543
23	0x3bae5368	0.0053200014

weight f4 [5, 4]
0	0xbc06a896	-0.008218905
1	0xbab8928d	-0.0014081761
2	0x3a826455	0.0009948114
3	0xbbe46481	-0.006969989
4	0x3ce28d35	0.027655223
5	0x3be7728b	0.007063215
6	0xbbc36e0c	-0.0059640463
7	0x3c05be87	0.008163101
8	0x3b0541b6	0.0020333356
9	0xbbfed683	-0.0077770366
10	0x3cc6d016	0.024269145
11	0x3c8fdcef	0.017561404
12	0xb9c3c220	-0.00037337933
13	0x3caccbac	0.021093212
14	0xbb859fd1	-0.0040778895
15	0xbb436e6c	-0.0029820455
16	0x3c947117	0.018120332
17	0x3c411bc8	0.011786409
18	0x3c9e2a28	0.019307211
19	0x3a44b126	0.0007503204

weight f4 [6, 4]
0	0x3c3e3336	0.011608889
1	0x3991a81c	0.00027781806
2	0xbc93eec5	-0.01805819
3	0xbbb6683a	-0.005566624
4	0xbc25f4b0	-0.010129139
5	0xbb9e4477	-0.004829939
6	0xbc2ab06d	-0.01041804
7	0xbb94cfc1	-0.0045413678
8	0x3c6b3b19	0.014357352
9	0x3c9542f8	0.01822041
10	0x3d1640ae	0.036682777
11	0xba97f65f	-0.001159381
12	0x3cf3bf61	0.029754343
13	0x3cb632fb	0.022241106
14	0x3be0c4c1	0.0068593924
15	0xbcb3028e	-0.021851804
16	0x3c1d19b0	0.009588644
17	0x3b226e6d	0.0024785057
18	0x3cf19cee	0.029493775
19	0xbd0717d5	-0.032981712
20	0x3cc9acd6	0.024618547
21	0xbb05113b	-0.002030446
22	0x3c64b36c	0.013958793
23	0xbc173fee	-0.009231551

weight f4 [6, 4]
0	0xbc2444a3	-0.01002613
1	0xbb84c4cc	-0.0040517803
2	0x3c276beb	0.010218601
3	0xbb26d000	-0.0025453568
4	0xbbf276bd	-0.0073994086
5	0x39e5621d	0.00043751384
6	0xbcf0a599	-0.029375838
7	0x39c89364	0.00038256787
8	0xbc3c344a	-0.011487076
9	0xbca72e80	-0.020407915
10	0x3c87e6e0	0.016589582
11	0x3cd4db8a	0.02598359
12	0xbc97c02c	-0.018524252
13	0xbbcde938	-0.0062839054
14	0x3b413547	0.0029481219
15	0xbb9505ea	-0.004547824
16	0xbcc4888c	-0.023990892
17	0x3cc799ae	0.024365272
18	0x3baa562f	0.005198262
19	0xbc22112a	-0.009891788
20	0xbb349c9f	-0.0027559174
21	0xbc3e87fb	-0.0116291
22	0xba31da72	-0.0006784565
23	0xbbcda59c	-0.0062758457

weight f4 [117]
0	0x3f792e06	0.9733585
1	0x3f791920	0.9730396
2	0x3f786ff3	0.9704582
3	0x3f7926fe	0.9732512
4	0x3f7f97eb	0.99841183
5	0x3f80ac4a	1.0052578
6	0x3f788a06	0.9708561
7	0x3f79abf5	0.9752801
8	0x3f7a607f	0.9780349
9	0x3f78dbaa	0.9721018
10	0x3f78b279	0.9714733
11	0x3f77eb96	0.9684385
12	0x3f789a3f	0.9711036
13	0x3f7cf301	0.98808295
14	0x3f797c13	0.9745495
15	0x3f7e86a1	0.9942418
16	0x3f7d56ff	0.9896087
17	0x3f7f6016	0.9975599
18	0x3f7bf1c0	0.98415756
19	0x3f78bc6c	0.9716251
20	0x3f78214a	0.96925795
21	0x3f7b8e65	0.9826415
22	0x3f7a14ff	0.9768829
23	0x3f812e09	1.0092174
24	0x3f7828cb	0.96937245
25	0x3f7ce0af	0.9878034
26	0x3f787c2f	0.9706449
27	0x3f7843fb	0.9697873
28	0x3f793412	0.9734508
29	0x3f7d3aed	0.9891804
30	0x3f7d3d46	0.9892162
31	0x3f789d6f	0.97115225
32	0x3f814b0c	1.0101027
33	0x3f7c9774	0.986686
34	0x3f814d32	1.0101683
35	0x3f7aa4e0	0.9790783
36	0x3f7bc571	0.98348147
37	0x3f7978b9	0.97449833
38	0x3f797a42	0.97452176
39	0x3f7b6723	0.9820425
40	0x3f801521	1.0006448
41	0x3f7f0b08	0.9962621
42	0x3f7c69a6	0.98598707
43	0x3f776425	0.96637183
44	0x3f796803	0.97424334
45	0x3f7de366	0.9917511
46	0x3f78a181	0.97121435
47	0x3f7c11ca	0.98464644
48	0x3f7b5452	0.9817554
49	0x3f7e5854	0.9935353
50	0x3f782829	0.9693628
51	0x3f799950	0.9749956
52	0x3f7786d6	0.9669012
53	0x3f7ba41d	0.9829729
54	0x3f7a5ce9	0.9779802
55	0x3f80cdaf	1.006277
56	0x3f78a3c6	0.971249
57	0x3f7b01d5	0.9804967
58	0x3f8213b4	1.0162263
59	0x3f7a930d	0.9788063
60	0x3f7bf0a4	0.98414063
61	0x3f7981d2	0.97463715
62	0x3f796b4f	0.97429365
63	0x3f7e6810	0.99377537
64	0x3f7cacc2	0.9870111
65	0x3f7d8474	0.9903023
66	0x3f789a43	0.97110385
67	0x3f788987	0.9708485
68	0x3f7c28b0	0.98499584
69	0x3f787a0a	0.97061217
70	0x3f82073c	1.0158458
71	0x3f7b3374	0.98125386
72	0x3f7cc40b	0.9873664
73	0x3f823b82	1.017441
74	0x3f7b6829	0.9820581
75	0x3f795013	0.9738781
76	0x3f7ac0bf	0.9795036
77	0x3f83272f	1.0246333
78	0x3f8155b8	1.0104284
79	0x3f7f75cd	0.99789125
80	0x3f7a77de	0.9783915
81	0x3f840c4a	1.031625
82	0x3f7fecbc	0.99970603
83	0x3f8360fa	1.026397
84	0x3f7d1cb5	0.9887193
85	0x3f804e9b	1.0023988
86	0x3f80f11d	1.0073582
87	0x3f840cca	1.0316403
88	0x3f803cb8	1.001853
89	0x3f81c659	1.0138656
90	0x3f83b8bb	1.029075
91	0x3f833ec6	1.0253532
92	0x3f7d92d4	0.99052167
93	0x3f812d3d	1.0091931
94	0x3f844918	1.0334806
95	0x3f83f2d3	1.0308479
96	0x3f8219c8	1.0164118
97	0x3f82b41f	1.0211219
98	0x3f8278ee	1.0193155
99	0x3f8133f3	1.0093979
100	0x3f822a1d	1.0169102
101	0x3f82c96c	1.0217719
102	0x3f81756e	1.0113962
103	0x3f83beb4	1.0292573
104	0x3f7ae236	0.9800142
105	0x3f838a7b	1.0276636
106	0x3f84ff49	1.0390407
107	0x3f8494c7	1.0357903
108	0x3f80f283	1.0074009
109	0x3f7b8639	0.9825168
110	0x3f815429	1.0103809
111	0x3f836b0a	1.0267041
112	0x3f7e592a	0.99354804
113	0x3f7f06b4	0.99619603
114	0x3f8575c2	1.0426562
115	0x3f83e8dd	1.0305439
116	0x3f7dc6ec	0.99131656

bias f4 [117]
0	0x3a5b2304	0.0008359405
1	0x3cad1241	0.021126868
2	0xbc3c6ad1	-0.011500076
3	0x3cb1b36f	0.021692006
4	0x3c673e74	0.014114011
5	0x3c694a37	0.014238886
6	0xbc8bba31	-0.017056556
7	0xbc5d1ab5	-0.013495137
8	0xbc9108f1	-0.017704459
9	0x3ca1716d	0.019707406
10	0xbc89eae2	-0.016835634
11	0xbcd6cc14	-0.026220359
12	0x3cac61ba	0.021042693
13	0xbcc87ac6	-0.024472605
14	0xba5553b5	-0.00081377785
15	0x3c90fd36	0.017698865
16	0x3c4f6160	0.012657493
17	0x3cb2327e	0.021752592
18	0x3c598cac	0.013278168
19	0xbcd9ff55	-0.02661101
20	0xba5c6dba	-0.00084086845
21	0x3c6e5b23	0.014548096
22	0xbc59269e	-0.013253836
23	0xbcbb0912	-0.022831473
24	0x3c889c27	0.016676022
25	0x3c9133b7	0.017724855
26	0xbc042395	-0.008065124
27	0x3c9a1eb4	0.018813469
28	0x3c73af95	0.014873405
29	0xbcf83685	-0.030299434
30	0x3cc35155	0.023842493
31	0x3bdfbd6f	0.006828002
32	0xbd03b1f5	-0.032152135
33	0x3cd860ff	0.026413439
34	0xbcb8579c	-0.022502713
35	0x3c397ebf	0.0113217225
36	0xbbaefac5	-0.0053399527
37	0xbcc1af48	-0.02364315
38	0xbced7a4a	-0.028988976
39	0xbce674da	-0.028131891
40	0xbce80849	-0.028324263
41	0xbc82ac7a	-0.015951384
42	0x3cc496b7	0.023997648
43	0xbcd1d895	-0.02561597
44	0x3bc5b6fb	0.006033776
45	0xbc81aef1	-0.015830489
46	0xbd04a8fd	-0.032387722
47	0x3ccc6b67	0.024953557
48	0xbd041609	-0.032247577
49	0xbccb6cc9	-0.024832146
50	0xbcff41dd	-0.031159336
51	0x3c99bf36	0.018767934
52	0xbd1032c9	-0.035204682
53	0x3c44b531	0.01200609
54	0xbd10af3a	-0.03532336
55	0xbd094da9	-0.033521328
56	0xbcdd943f	-0.027048228
57	0xbcfc413f	-0.03079283
58	0xbce19af6	-0.027539711
59	0x3cfa1c1a	0.030530978
60	0xbd08d803	-0.03340913
61	0x3c83c7ea	0.016086537
62	0xbcb3123e	-0.021859284
63	0xb9b563d6	-0.00034597394
64	0xbd0747b7	-0.033027377
65	0xbd0ba985	-0.034097213
66	0xbceeebdb	-0.029165199
67	0x3cc38739	0.02386819
68	0x3c8f1daa	0.0174702
69	0x3d16e8c0	0.03684306
70	0x3c874975	0.01651452
71	0xbcb06725	-0.021533558
72	0xbd197fe2	-0.037475474
73	0x3c68a286	0.014198905
74	0xbbe1456f	-0.006874732
75	0x3cf8693a	0.030323613
76	0x3cc8f57b	0.024531117
77	0x3cec8240	0.028870702
78	0xbcd5985c	-0.026073627
79	0x3c7e0aa3	0.015505466
80	0xbcefc8f2	-0.029270623
81	0x3c314b26	0.010821139
82	0xbd073130	-0.033005893
83	0xbbe4fe1c	-0.0069883
84	0xb97c7843	-0.00024077394
85	0xbbba4d5c	-0.0056854915
86	0x3c992a5b	0.018696954
87	0xbcaeb9b6	-0.021328788
88	0x3c239a90	0.009985581
89	0x3d1ab51d	0.03777038
90	0xbb8e9738	-0.004351523
91	0xbcf2ec60	-0.029653728
92	0x3c9e1314	0.019296207
93	0x3cc1c0af	0.023651449
94	0xbcfdb864	-0.030971713
95	0xbbd8f33e	-0.0066207936
96	0xbc0c3431	-0.008557365
97	0x3cc50822	0.02405173
98	0xbd104ec9	-0.035231385
99	0xbcf81339	-0.030282604
100	0xbcfa87cd	-0.030582333
101	0x3d1b0307	0.037844684
102	0xb9e12d93	-0.000429493
103	0xbc89e6bf	-0.016833661
104	0x3ca0b54b	0.019617697
105	0x3cd91d8e	0.02650335
106	0xbcb4962c	-0.022044264
107	0xbc8f1296	-0.017464917
108	0x3ba5a586	0.0050551323
109	0x3c60cb5d	0.013720361
110	0xbd1313b7	-0.035907473
111	0xbc47bc1d	-0.012190846
112	0xbb6aeda8	-0.003584722
113	0x3cfb6d31	0.030691715
114	0xbd29c035	-0.04144307
115	0xbce2634f	-0.027635245
116	0x3c0fe9d3	0.008783775

running_mean f4 [117]
0	0xbc336b33	-0.010950851
1	0x38cb7a60	9.7025884e-05
2	0x3bc7214a	0.0060769664
3	0xbcd8fd4a	-0.026487965
4	0xbcde1afd	-0.027112478
5	0xbd148efd	-0.036269177
6	0xbbc2c09f	-0.0059433724
7	0xbc6ea806	-0.014566427
8	0x3a5fbfcb	0.0008535354
9	0xbc90475a	-0.017612148
10	0xbb2fccbd	-0.0026824914
11	0xbb378cdf	-0.002800755
12	0x3b9840d7	0.0046464014
13	0xb8b8214d	-8.7800065e-05
14	0xbc3102eb	-0.010803918
15	0xbbf9b63d	-0.0076206014
16	0xbb979bef	-0.004626743
17	0xbc1a922f	-0.009434267
18	0xbba7d54d	-0.005121863
19	0x3ba4bb9b	0.005027247
20	0xbc03c34e	-0.00804217
21	0x3c1b6ad1	0.009485916
22	0x3b83555e	0.0040079793
23	0x3c1a118a	0.009403596
24	0x3b253207	0.002520682
25	0xbbe3b96f	-0.0069495956
26	0xbc8fc336	-0.017549139
27	0xbc0a8a95	-0.008455892
28	0xbb4ba713	-0.0031074926
29	0xbc440f56	-0.011966547
30	0xbb808f57	-0.0039233374
31	0xbb8074b7	-0.0039201635
32	0xbb80fcc3	-0.0039363815
33	0xbb808f6b	-0.0039233468
34	0xbbd5461e	-0.0065086028
35	0xbb294fe9	-0.0025834984
36	0x3ab0ca90	0.0013488103
37	0xbc922d89	-0.017843978
38	0xbb827682	-0.0039814124
39	0xbb7c5bcb	-0.0038506861
40	0xbb960b57	-0.0045789885
41	0xbb804085	-0.0039139413
42	0xbb81c2eb	-0.0039600036
43	0x3b0ed658	0.002179524
44	0x3c08140b	0.00830556
45	0xbce0afbc	-0.027427547
46	0xbca9d2df	-0.020730434
47	0xbc892524	-0.016741343
48	0xbc82a847	-0.015949382
49	0xbd1e9d36	-0.038724147
50	0xbcbebf24	-0.023284502
51	0x3aa758d8	0.0012767566
52	0xbc24b27a	-0.010052318
53	0xbc89387a	-0.016750563
54	0xbcef5f35	-0.029220203
55	0x3a01fe14	0.000495882
56	0x3c0fcba2	0.008776577
57	0xbca31dd1	-0.019911679
58	0xbc06e87e	-0.008234141
59	0xbce496c9	-0.027903931
60	0xbcbe38bd	-0.023220414
61	0xbc97eb14	-0.018544711
62	0xbcb93275	-0.022607068
63	0xbc3d139a	-0.011540318
64	0xbc3093df	-0.010777443
65	0xbcc9aab1	-0.024617525
66	0xbc684734	-0.014177132
67	0xbc7cd901	-0.015432597
68	0x3beb3390	0.0071777776
69	0x3cc08afa	0.02350377
70	0xbcd0bb0a	-0.025479812
71	0xbc00e9ef	-0.007868274
72	0x3a7fe792	0.00097619847
73	0x3cbbed30	0.022940248
74	0xbcd8053c	-0.026369683
75	0xbbe8e3d4	-0.0071072374
76	0x3bec8c94	0.0072189067
77	0x3ccbc705	0.024875173
78	0xbcb25913	-0.02177099
79	0xbc0a8277	-0.008453957
80	0xbb0c6ef3	-0.0021428436
81	0x3c853943	0.016262656
82	0xbc930cdb	-0.017950466
83	0xbb42a56a	-0.0029700645
84	0x3bec323a	0.007208136
85	0x3cc3b104	0.023888119
86	0xbc9eee32	-0.01940069
87	0xbc7648da	-0.015032018
88	0x3a0619c2	0.00051155325
89	0x3cca6a88	0.024709001
90	0xbca8ca75	-0.020604352
91	0xbc7b87fe	-0.015352247
92	0x3b6318d2	0.0034652245
93	0x3c9c00f0	0.019043416
94	0xbc94ec52	-0.018179093
95	0xbbd94ff6	-0.0066318465
96	0x3c0c517b	0.008564348
97	0x3cd02da0	0.02541238
98	0xbcb24fc7	-0.021766556
99	0xbc8ea292	-0.017411504
100	0xba34adc2	-0.0006892347
101	0x3cd1fc21	0.02563292
102	0xbc9e2d21	-0.019308629
103	0xbcafbcad	-0.021452272
104	0x3b99cd8e	0.0046936935
105	0x3cbaba54	0.022793926
106	0xbcab16b5	-0.020884851
107	0xbc1c720a	-0.009548673
108	0x3c4999eb	0.012304763
109	0x3ccf5360	0.025308311
110	0xbc68ac3e	-0.014201222
111	0xbca8faa5	-0.02062733
112	0x3b84b74f	0.0040501724
113	0x3c63de77	0.01390802
114	0xbc661a3c	-0.014044341
115	0xbbeb2314	-0.0071758125
116	0x3c6d247d	0.0144740315

running_var f4 [117]
0	0x3f7fea5c	0.9996698
1	0x3f800fa0	1.0004768
2	0x3f53dde9	0.82760483
3	0x3f5d0c71	0.8634711
4	0x3f6cd67c	0.9251478
5	0x3f671b52	0.9027606
6	0x3e6088ef	0.21927236
7	0x3f64652c	0.89216876
8	0x3f69765c	0.9119623
9	0x3f5b2f48	0.8561902
10	0x3e8fea97	0.28108665
11	0x3e8e9aea	0.27852565
12	0x3e9279a5	0.28608432
13	0x3f4222d2	0.7583438
14	0x3f345d77	0.70455116
15	0x3ea00bda	0.31259042
16	0x3eabe903	0.3357621
17	0x3ea328df	0.3186712
18	0x3eaa3463	0.33243093
19	0x3f46786a	0.7752749
20	0x3f3266ac	0.69687915
21	0x3f3635b9	0.71175724
22	0x3f332649	0.69980294
23	0x3f388c2e	0.720889
24	0x3f33c16f	0.7021703
25	0x3f3c6121	0.73585707
26	0x3f3a71f1	0.7283011
27	0x3f2b0002	0.66796887
28	0x3f1ac706	0.60459936
29	0x3f2890b5	0.65845805
30	0x3f1aaf8d	0.6042412
31	0x3f1b3560	0.6062832
32	0x3f1b1dd3	0.60592383
33	0x3f1aaf8d	0.6042412
34	0x3ed4c829	0.4155896
35	0x3eea207a	0.45727903
36	0x3f1a9bf1	0.603942
37	0x3f27e6d6	0.655866
38	0x3f1a3a8e	0.602456
39	0x3f1a98be	0.60389316
40	0x3f1b2a09	0.60611016
41	0x3f18d669	0.59702164
42	0x3f1ac459	0.6045585
43	0x3e222850	0.1583569
44	0x3f0a9103	0.5412752
45	0x3f7e700f	0.9938974
46	0x3f7c8607	0.9864201
47	0x3f805346	1.0025413
48	0x3f806a2c	1.0032401
49	0x3f7ab396	0.97930276
50	0x3f7bb3fa	0.983215
51	0x3f85a021	1.0439492
52	0x3f80c7b6	1.0060947
53	0x3f7c40c7	0.9853634
54	0x3f7d12dc	0.988569
55	0x3f7d6fd4	0.9899876
56	0x3f86eddd	1.054134
57	0x3f77c0c8	0.96778536
58	0x3f7fd380	0.999321
59	0x3f7695c2	0.9632226
60	0x3f7a078d	0.9766777
61	0x3f804878	1.0022116
62	0x3f7a60d2	0.97803986
63	0x3f7afedf	0.9804515
64	0x3f77a93e	0.9674262
65	0x3f80a9cb	1.0051817
66	0x3f61581f	0.8802509
67	0x3f602def	0.8757009
68	0x3f7909d0	0.972806
69	0x3f810813	1.0080589
70	0x3f804f09	1.002412
71	0x3f813add	1.0096089
72	0x3f823cef	1.0174845
73	0x3f80f7c1	1.0075608
74	0x3f804314	1.0020471
75	0x3f80feb7	1.0077733
76	0x3f8a9ce3	1.0829128
77	0x3f7f286b	0.9967105
78	0x3f7aba06	0.979401
79	0x3f7bc0f1	0.9834128
80	0x3f794799	0.97374874
81	0x3f8141d1	1.009821
82	0x3f7ef2a8	0.99589014
83	0x3f83db5d	1.0301319
84	0x3f866898	1.050067
85	0x3f7ef783	0.9959642
86	0x3f7d3767	0.9891266
87	0x3f79d8a0	0.9759617
88	0x3f81df2b	1.014623
89	0x3f7f2821	0.99670607
90	0x3f7db7b9	0.99108464
91	0x3f79bfc9	0.97558266
92	0x3f8729ef	1.0559672
93	0x3f7d9b2f	0.99064916
94	0x3f7b661a	0.9820267
95	0x3f7cf57d	0.98812085
96	0x3f89f227	1.0777024
97	0x3f803091	1.0014821
98	0x3f8064cc	1.0030761
99	0x3f79a1a3	0.97512263
100	0x3f810654	1.0080056
101	0x3f7f9703	0.998398
102	0x3f7f5f0e	0.99754417
103	0x3f75c19e	0.9599856
104	0x3f8a099f	1.0784186
105	0x3f7e2264	0.99271226
106	0x3f7a2fda	0.97729266
107	0x3f7b1a5b	0.9808709
108	0x3f8dd5a9	1.1080829
109	0x3f7d7d9d	0.99019796
110	0x3f7b699c	0.9820802
111	0x3f74fe1c	0.9570024
112	0x3f87346a	1.056287
113	0x3f805995	1.0027338
114	0x3f7fa618	0.99862814
115	0x3f802512	1.0011313
116	0x3f947f08	1.1601267

weight f4 [200, 161]
0	0x3d94217a	0.07232948
1	0xbd0fc1ea	-0.03509704
2	0xbae94c16	-0.0017799165
3	0xbce94e29	-0.028479652
4	0xbc3b1387	-0.01141823
5	0x3ce6ab7f	0.028157948
6	0x3c45fd5e	0.012084333
7	0xbbc4c156	-0.0060044928
8	0xbda8f53b	-0.08249899
9	0x3bfd4c64	0.0077300537
10	0xbc319cad	-0.010840577
11	0x3c6a650c	0.014306318
12	0x3d795243	0.060869467
13	0x3d932304	0.07184413
14	0xbd24c809	-0.04022983
15	0xb978dfae	-0.0002373445
16	0xbcf33651	-0.029688986
17	0xbd925451	-0.07144988
18	0xbd7ca09f	-0.061676618
19	0x3d8ea063	0.06964185
20	0x3cfde0f4	0.030991055
21	0x3cd87505	0.026422987
22	0x3d2c9ba9	0.042140637
23	0xbd507d31	-0.05090064
24	0x3c9f4b62	0.019445125
25	0x3d8c9048	0.06863457
26	0xbcbd1d22	-0.02308518
27	0x3d72bf1d	0.05926429
28	0x3caaff16	0.020873588
29	0x3d499c62	0.049221404
30	0xbcc6cbbd	-0.024267072
31	0x3cf53b34	0.029935457
32	0xbd84013b	-0.06445547
33	0xbc25a942	-0.010111155
34	0x3cff721c	0.031182341
35	0x3cdcf8b5	0.026974062
36	0x3d96a6ea	0.07356055
37	0x3d98adc1	0.07455016
38	0x3d96d516	0.07364862
39	0x3d501c6d	0.05080836
40	0x3d57d4d4	0.052693203
41	0xbc61ceab	-0.013782184
42	0xbd7a8f4b	-0.06117181
43	0xbce8e1dc	-0.02842801
44	0xbd003d05	-0.031308193
45	0xbd39c311	-0.045352045
46	0x3d49e762	0.04929293
47	0x3bad10b6	0.005281533
48	0xbc338eac	-0.010959309
49	0xbb855766	-0.0040692566
50	0x3d866f6f	0.06564223
51	0x3cfe1602	0.031016354
52	0xbda2e232	-0.079532996
53	0xbd8a76fa	-0.06760974
54	0x3d5cb321	0.053881768
55	0x3ce74301	0.028230192
56	0x3cc0006f	0.023437707
57	0xbdb5eaa7	-0.08882647
58	0xbd8bf5b7	-0.06833976
59	0x3d0be619	0.034154985
60	0x3d179604	0.0370083
61	0xbdab3d1a	-0.083612636
62	0x3c54b857	0.012983403
63	0xbd826885	-0.06367592
64	0x3d6e26fe	0.058142655
65	0x3d36b444	0.04460551
66	0x3dd3d47d	0.10343263
67	0xbd67e1a8	-0.056611687
68	0xbd5ebb13	-0.054377627
69	0x3d888c0c	0.06667337
70	0x3dae331c	0.08505842
71	0x3d5d8803	0.05408479
72	0x3d0231c6	0.03178575
73	0xbdb2039f	-0.08692097
74	0x3d2028d1	0.039101426
75	0xbdb378ab	-0.0876325
76	0xb9f63b5c	-0.00046965003
77	0xbd8e496b	-0.06947597
78	0xbd3ebae5	-0.046564955
79	0xbbdf0e1f	-0.0068071033
80	0xbd46adb3	-0.048505496
81	0xbcceae42	-0.025229577
82	0xbdbc0cfa	-0.091821626
83	0xbdbe09ca	-0.09279211
84	0x3c580740	0.013185322
85	0xbd52615c	-0.05136238
86	0xbd863004	-0.06552127
87	0xbd5571c6	-0.052110456
88	0xbd8a3344	-0.067480594
89	0xbdabe38f	-0.08393013
90	0x3ccb0062	0.024780456
91	0x3c8a86b8	0.016909942
92	0xbb94d9ca	-0.004542564
93	0xbd832f0a	-0.06405456
94	0x3bdb2c73	0.0066886484
95	0xbc0c7cc7	-0.008574671
96	0xbda02105	-0.07818798
97	0xbbf31d54	-0.0074192677
98	0x3d480b13	0.048838686
99	0xbdc56af2	-0.09639539
100	0xbdcbc580	-0.099497795
101	0xbc4611c4	-0.012089197
102	0x3d162206	0.03665354
103	0xbd90b2a3	-0.07065322
104	0xbbbd2033	-0.0057716607
105	0x3d07dd50	0.033170044
106	0xba6049c9	-0.0008555917
107	0xbb9a0b5e	-0.004701062
108	0x3d629cf7	0.055325475
109	0x3ce04ce4	0.027380414
110	0xbd82abcb	-0.06380423
111	0xbc5087e8	-0.012727715
112	0x3ccaf391	0.024774345
113	0x3dbafd20	0.09130311
114	0xbdc43a2e	-0.095814094
115	0x3ccbc269	0.024872975
116	0xbd20402b	-0.039123695
117	0xbd616266	-0.05502548
118	0xba8f06c7	-0.0010912054
119	0xbd76bbb6	-0.06023761
120	0xbb99cc4f	-0.004693545
121	0xbcf4117e	-0.029793497
122	0xbdaac29e	-0.083379015
123	0xbbca4dab	-0.0061738095
124	0xbd34328e	-0.043993525
125	0x3d885154	0.06656137
126	0xbc73a737	-0.01487141
127	0x3d834dee	0.06411348
128	0xbb5efd31	-0.0034025426
129	0xbb836005	-0.004009249
130	0x3cf5c208	0.029999748
131	0xbabd4236	-0.0014439288
132	0xbb75d86b	-0.0037513028
133	0xbb82cb26	-0.0039915023
134	0xbcbc7be5	-0.023008296
135	0xbcadc915	-0.021214047
136	0xbcd0ad1d	-0.025473172
137	0xbd24d56b	-0.040242594
138	0xbcc3eef7	-0.023917658
139	0xbd87f25d	-0.06638024
140	0xbd16be8b	-0.03680281
141	0x3d8ad324	0.06778553
142	0xbda1faee	-0.07909189
143	0xbd864b87	-0.065573744
144	0xbd19823f	-0.037477728
145	0x3a133fcf	0.0005617113
146	0xbc3c6be8	-0.011500336
147	0x3af1de2f	0.0018453057
148	0x3cc13f33	0.023589706
149	0xbd097cd0	-0.033566296
150	0xbcea9ab3	-0.02863822
151	0x3d4cdd73	0.050015878
152	0x3d52fd34	0.051511005
153	0x3c883877	0.016628487
154	0xbd8e95aa	-0.0696214
155	0x3ce77e26	0.028258394
156	0x3cd310e6	0.025764894
157	0xbce37439	-0.02776538
158	0xbd8d3ce2	-0.06896378
159	0x3ced6e7d	0.028983349
160	0xbc9be508	-0.019030109
161	0xbd963902	-0.07335092
162	0xbd349a42	-0.044092424
163	0x3d2c2525	0.04202761
164	0xbd0886a1	-0.033331517
165	0x3d784309	0.060610805
166	0x3da0bb99	0.078482814
167	0x3c981d86	0.018568765
168	0xbbb114eb	-0.005404105
169	0xbd0e088f	-0.03467613
170	0xbcac7b1a	-0.021054793
171	0x3cd86206	0.026413929
172	0xbd783630	-0.060598552
173	0xbcb61d4a	-0.022230763
174	0xbd63e6a3	-0.055639874
175	0x3d21047f	0.03931093
176	0xbd81f468	-0.06345445
177	0x3d817f57	0.06323116
178	0xbc80ee01	-0.01573849
179	0xbd68cd5b	-0.056836467
180	0x3d232b37	0.039836135
181	0xbbb0e58d	-0.0053984583
182	0x3d280b7e	0.041026585
183	0x3cd048fc	0.025425427
184	0xbd71b5ca	-0.05901126
185	0x3d997e48	0.07494789
186	0xbd067fb0	-0.032836616
187	0xbc2efbf4	-0.0106801875
188	0x3d09c64b	0.033636373
189	0x3d7cbbf7	0.061702695
190	0xbda23466	-0.079201505
191	0x3a9783d2	0.0011559671
192	0x3d64b094	0.05583246
193	0x3d284ab1	0.041086856
194	0x3d957481	0.07297612
195	0xbcc6ba97	-0.024258895
196	0xbd3d3e00	-0.046201706
197	0x3d9aba22	0.07555033
198	0x3ce955d6	0.028483313
199	0x3dbedbab	0.09319242
200	0xbd0e51fc	-0.034746155
201	0xbd79d5ec	-0.060995027
202	0xbbd4f610	-0.0064990595
203	0xbd99125f	-0.07474207
204	0x3d138b7d	0.0360217
205	0x3d36c918	0.04462537
206	0xb9ac9503	-0.0003291742
207	0x3c2bc7e8	0.010484673
208	0x3cef262a	0.029193003
209	0xbd81f0ed	-0.06344781
210	0x3d7dd0d4	0.061966732
211	0xbdbd202d	-0.09234653
212	0xbda91d27	-0.082575135
213	0x3ab65fa8	0.0013914006
214	0x3d82f409	0.06394202
215	0xbb50f1f7	-0.0031882504
216	0x3d03b62c	0.032156155
217	0xbd26cdf8	-0.04072377
218	0x3cadb0f9	0.021202551
219	0xbbd2d50f	-0.00643409
220	0x3d319f18	0.043364614
221	0x3d1752d1	0.036944214
222	0x3d2dd7be	0.042442076
223	0xbd0f23a4	-0.0349461
224	0xbb70b6e4	-0.0036730105
225	0xbd362b2f	-0.044474777
226	0xbc05ed12	-0.008174198
227	0x3d8d28ee	0.06892572
228	0xbc2fe90e	-0.010736717
229	0x3d8edbc5	0.069755115
230	0xbd509882	-0.050926693
231	0xbca86e46	-0.020560395
232	0xbc4f84db	-0.012665953
233	0xbdbb9e0e	-0.09161006
234	0xbc746c7a	-0.014918441
235	0xbce3a7bc	-0.027789943
236	0xbcf0957a	-0.029368151
237	0xbd10d866	-0.035362624
238	0x3d2d23f7	0.042270627
239	0x3d10a1c4	0.03531052
240	0xbd760ae2	-0.060068972
241	0x3cf08621	0.029360833
242	0xbda0811d	-0.078371264
243	0xbdb02d0d	-0.08602343
244	0x3b16c57c	0.0023005893
245	0xbc99c5f4	-0.01877115
246	0xbd6c3a78	-0.057672948
247	0xbdc2b7c6	-0.09507708
248	0xbc2b87b2	-0.010469364
249	0x3cd40da7	0.025885416
250	0xbd5b3627	-0.05351844
251	0xbd2947c3	-0.041328203
252	0x3d4766b0	0.048681915
253	0xbcfcd709	-0.030864256
254	0xbd2ac9e9	-0.041696463
255	0xbb3acad8	-0.0028502252

weight f4 [200]
0	0x3f797893	0.97449607
1	0x3f7c393d	0.9852484
2	0x3f7b7e4a	0.98239577
3	0x3f7902a5	0.9726966
4	0x3f833c76	1.0252826
5	0x3f81daca	1.0144894
6	0x3f847a3f	1.0349807
7	0x3f840435	1.0313784
8	0x3f7fef0b	0.99974126
9	0x3f7aef6d	0.98021585
10	0x3f7786e1	0.96690184
11	0x3f7c1b3d	0.9847906
12	0x3f7998ae	0.97498596
13	0x3f79e4fa	0.97615016
14	0x3f7ae0a8	0.9799905
15	0x3f837933	1.0271362
16	0x3f809510	1.004549
17	0x3f822d2a	1.0170033
18	0x3f83258f	1.0245837
19	0x3f7ef609	0.9959417
20	0x3f7aebf4	0.98016286
21	0x3f78f99f	0.9725589
22	0x3f7a9e28	0.9789758
23	0x3f79e5a4	0.9761603
24	0x3f7a0b4b	0.9767348
25	0x3f7a1d01	0.97700506
26	0x3f78e727	0.9722771
27	0x3f83c071	1.0293103
28	0x3f7b6c3c	0.9821203
29	0x3f7a5d5d	0.9779871
30	0x3f814fc9	1.0102473
31	0x3f793d48	0.9735913
32	0x3f7c501e	0.9855975
33	0x3f7d7c4e	0.990178
34	0x3f82eaa5	1.0227858
35	0x3f81a9ac	1.0129905
36	0x3f82b344	1.0210958
37	0x3f82bc41	1.02137
38	0x3f7acc46	0.97967947
39	0x3f83c973	1.0295852
40	0x3f7c55f4	0.98568654
41	0x3f787f26	0.97069013
42	0x3f8279b5	1.0193392
43	0x3f835234	1.0259461
44	0x3f7b0a43	0.98062533
45	0x3f815929	1.0105335
46	0x3f7ec7e7	0.99523777
47	0x3f798f6e	0.9748448
48	0x3f818049	1.0117275
49	0x3f82f485	1.0230871
50	0x3f78dc8b	0.9721152
51	0x3f83a96f	1.0286082
52	0x3f7db5f6	0.99105775
53	0x3f81fc36	1.0155094
54	0x3f78c9e6	0.9718307
55	0x3f817c8b	1.0116132
56	0x3f79e3c9	0.976132
57	0x3f79feb7	0.9765429
58	0x3f81f437	1.0152653
59	0x3f82e514	1.0226159
60	0x3f79de28	0.9760461
61	0x3f7c5cd6	0.98579156
62	0x3f82606e	1.0185678
63	0x3f836888	1.0266275
64	0x3f845366	1.0337951
65	0x3f84166e	1.0319345
66	0x3f79adc8	0.97530794
67	0x3f7b7676	0.9822763
68	0x3f83b539	1.028968
69	0x3f7b862a	0.98251593
70	0x3f7a86ef	0.9786214
71	0x3f7e05d2	0.9922763
72	0x3f7fd146	0.999287
73	0x3f833cbd	1.0252911
74	0x3f83ba68	1.0291262
75	0x3f7beb21	0.98405653
76	0x3f7d91c0	0.9905052
77	0x3f799394	0.9749081
78	0x3f8026d3	1.0011848
79	0x3f800fb7	1.0004796
80	0x3f8062c3	1.003014
81	0x3f78bb19	0.9716049
82	0x3f7a7b08	0.9784398
83	0x3f795b9c	0.9740541
84	0x3f7ab448	0.9793134
85	0x3f81be84	1.0136266
86	0x3f82b5ab	1.0211691
87	0x3f820ca2	1.0160105
88	0x3f814959	1.0100509
89	0x3f7a98d3	0.9788944
90	0x3f8137bd	1.0095135
91	0x3f7a477c	0.97765326
92	0x3f816768	1.0109682
93	0x3f832843	1.0246662
94	0x3f821789	1.0163432
95	0x3f7bce77	0.98361915
96	0x3f7f31cb	0.99685353
97	0x3f78e7e0	0.97228813
98	0x3f82922d	1.0200859
99	0x3f826d31	1.0189573
100	0x3f816637	1.0109318
101	0x3f8156a9	1.0104572
102	0x3f811296	1.0083797
103	0x3f7fc595	0.9991086
104	0x3f828c99	1.0199157
105	0x3f822b38	1.0169439
106	0x3f82d0da	1.0219986
107	0x3f79a94a	0.9752394
108	0x3f7b1f55	0.98094684
109	0x3f7c1126	0.98463666
110	0x3f8236d5	1.0172983
111	0x3f8351b6	1.0259311
112	0x3f824889	1.0178386
113	0x3f837af4	1.0271897
114	0x3f81aad0	1.0130253
115	0x3f82b973	1.0212845
116	0x3f78fc45	0.9725993
117	0x3f7b7c49	0.9823652
118	0x3f82d77a	1.0222008
119	0x3f7aa831	0.9791289
120	0x3f78ed92	0.97237504
121	0x3f79d8dd	0.9759653
122	0x3f7ab730	0.9793577
123	0x3f7aa966	0.9791473
124	0x3f82cbd0	1.0218449
125	0x3f8126e4	1.0089993
126	0x3f7b0f54	0.98070264
127	0x3f7a908e	0.9787682
128	0x3f823f14	1.01755
129	0x3f7980c2	0.97462094
130	0x3f830391	1.0235463
131	0x3f826ea6	1.0190017
132	0x3f8403d6	1.0313671
133	0x3f80f8fa	1.0075982
134	0x3f8224c5	1.0167471
135	0x3f830b0c	1.0237746
136	0x3f7aa848	0.97913027
137	0x3f79e056	0.97607934
138	0x3f7c512d	0.98561364
139	0x3f7d8ebf	0.9904594
140	0x3f7f869c	0.9981477
141	0x3f7929a4	0.97329164
142	0x3f7ff0a4	0.99976563
143	0x3f83cddc	1.0297198
144	0x3f813f18	1.009738
145	0x3f79b855	0.97546893
146	0x3f7b7a7f	0.9823379
147	0x3f81b8ee	1.0134561
148	0x3f7cd19c	0.9875734
149	0x3f7c97e3	0.9866926
150	0x3f828ad1	1.0198613
151	0x3f793952	0.9735309
152	0x3f830f87	1.0239114
153	0x3f80a006	1.0048835
154	0x3f79cc41	0.9757729
155	0x3f7a9b1d	0.97892934
156	0x3f8114e0	1.0084496
157	0x3f79245d	0.9732111
158	0x3f8016fb	1.0007013
159	0x3f823122	1.0171244
160	0x3f790a1f	0.9728107
161	0x3f839aca	1.0281613
162	0x3f7c479d	0.98546773
163	0x3f81242d	1.0089165
164	0x3f82a0d7	1.0205334
165	0x3f83b66a	1.0290043
166	0x3f83ac22	1.0286906
167	0x3f79ce17	0.97580093
168	0x3f7f2b2b	0.99675244
169	0x3f8494b3	1.0357879
170	0x3f7892ab	0.970988
171	0x3f817ff9	1.0117179
172	0x3f82c3cd	1.0216004
173	0x3f81fdaa	1.0155537
174	0x3f7895f0	0.97103786
175	0x3f810b5a	1.0081589
176	0x3f7ce55c	0.98787475
177	0x3f83ae6f	1.0287608
178	0x3f7a8d56	0.9787191
179	0x3f7c8940	0.98646927
180	0x3f835c63	1.0262569
181	0x3f80f00f	1.007326
182	0x3f8377ef	1.0270976
183	0x3f7b60af	0.981944
184	0x3f7a9360	0.97881126
185	0x3f841d45	1.0321432
186	0x3f7927e9	0.97326523
187	0x3f7c7329	0.9861322
188	0x3f7fed87	0.9997181
189	0x3f837d17	1.0272549
190	0x3f822b6c	1.0169501
191	0x3f839f93	1.0283073
192	0x3f79b245	0.9753764
193	0x3f84190b	1.0320143
194	0x3f7b77c1	0.98229605
195	0x3f80b2ab	1.0054525
196	0x3f81ccf6	1.0140674
197	0x3f818537	1.0118779
198	0x3f83c099	1.0293151
199	0x3f82ffbf	1.0234298

bias f4 [200]
0	0xbcec2991	-0.028828414
1	0x3d20d999	0.039270017
2	0x3d06c125	0.03289904
3	0x3d1d54a2	0.03841079
4	0xbd12219a	-0.035676576
5	0xbd02143e	-0.031757586
6	0xbc5ab461	-0.01334867
7	0x3c9d3c5d	0.019193823
8	0xbcdfe9d5	-0.02733318
9	0xbcae32d8	-0.021264479
10	0x3d09a783	0.033607017
11	0x3d16bfcc	0.036804006
12	0xbd3288a5	-0.043587346
13	0x3ccf599e	0.025311287
14	0xbc9640e2	-0.018341485
15	0x3d14c042	0.036316164
16	0x3cec1f59	0.028823541
17	0x3d1d6dd2	0.03843481
18	0x3c04da59	0.008108699
19	0x3cc607f7	0.02417372
20	0xbc8b1c34	-0.016981222
21	0xbbda255d	-0.006657286
22	0x3b9c3aa5	0.004767733
23	0x3b50f4ed	0.0031884268
24	0x3d08f617	0.033437815
25	0x3c982de4	0.01857657
26	0xbcbc6646	-0.022997987
27	0xbd1222fb	-0.03567789
28	0xbc9b1e65	-0.018935392
29	0x3d19c5ee	0.037542276
30	0xbca7a1d0	-0.0204629
31	0x3c98602c	0.018600546
32	0x3bfa0cdf	0.007630929
33	0xbb037faf	-0.002006512
34	0xbd0be3d8	-0.034152836
35	0xbc98d32c	-0.018655382
36	0xbb1f4614	-0.0024303244
37	0xbcca1b1c	-0.02467113
38	0x3d28e7c3	0.04123665
39	0xbc3d984e	-0.011571957
40	0xbcc3680e	-0.023853328
41	0x3d0a352b	0.03374211
42	0x3d0383fb	0.03210829
43	0x3a8af01e	0.0010600125
44	0xbb646784	-0.003485174
45	0x3cca17e2	0.024669591
46	0xbcec3314	-0.02883295
47	0x3ccf7d70	0.025328368
48	0xbcb71009	-0.022346513
49	0xbc96ddba	-0.018416274
50	0xbd15156b	-0.03639738
51	0xbd138b86	-0.03602173
52	0xbc90d8c3	-0.017681485
53	0xbd0c4cd7	-0.034252968
54	0xbcf1f46e	-0.029535498
55	0x3c6a642a	0.014306108
56	0x3d349748	0.044089586
57	0x3b9cb652	0.0047824765
58	0xbcae3066	-0.021263313
59	0xbc90deb0	-0.01768431
60	0xbd03635e	-0.032077186
61	0x3cc81073	0.024421906
62	0xbd25a819	-0.040443514
63	0xbc1daf10	-0.009624258
64	0x3bb71082	0.0055866847
65	0x3c7ac221	0.015305073
66	0x3d1bef83	0.038070213
67	0xbcd11f88	-0.02552773
68	0xbd369f32	-0.044585414
69	0xbcc8c73a	-0.024509061
70	0x3c6548ba	0.01399439
71	0x3d2d3669	0.042288218
72	0x3b7da7c3	0.003870473
73	0xbd1c8bc4	-0.03821923
74	0x3cb959b1	0.022625776
75	0xbd1da74b	-0.03848962
76	0xb97e5828	-0.00024256168
77	0xbcfd59f0	-0.030926675
78	0xbd06dcae	-0.0329253
79	0x3c1e9c9a	0.009680891
80	0xbcd123d8	-0.025529787
81	0xbc497ec8	-0.012298293
82	0xbd251ca0	-0.040310502
83	0xbb413926	-0.0029483526
84	0xb8ac2a40	-8.209469e-05
85	0x3d273a72	0.040827222
86	0xbd275f4e	-0.040862374
87	0xbd2d9a9c	-0.042383775
88	0x3d20d2dd	0.039263595
89	0xbcc84bfb	-0.024450293
90	0xb8ca2480	-9.638909e-05
91	0xbcbc2e75	-0.022971371
92	0x3d19cf71	0.037551347
93	0x3b2d342c	0.0026428802
94	0x3ca19705	0.019725332
95	0xbbd4e15e	-0.0064965924
96	0xbba7c26b	-0.005119612
97	0x3ce26500	0.027636051
98	0x3d036a60	0.03208387
99	0xbcd67a6b	-0.02618142
100	0x3cd68eea	0.026191194
101	0x3d3a500b	0.04548649
102	0x3cd59e5f	0.026076494
103	0xbd0b1001	-0.03395081
104	0xbd1be1af	-0.038057026
105	0xbc84c790	-0.01620844
106	0xbc24ea2c	-0.010065597
107	0x3d1d159f	0.038350698
108	0xbcb3c10b	-0.021942636
109	0xbcdcb9ef	-0.026944129
110	0x3cba06e5	0.022708366
111	0xbd150fdd	-0.03639208
112	0x3cfe7f95	0.031066695
113	0xbcc3e5da	-0.023913313
114	0xbcf1febe	-0.029540416
115	0x3d1daea7	0.03849664
116	0xbbf1e145	-0.0073815905
117	0x3c7887a0	0.015169054
118	0x39f37cba	0.000464415
119	0xbd1a8f0f	-0.037734088
120	0x3c685727	0.014180935
121	0x3cc09085	0.023506412
122	0xbba8659e	-0.005139067
123	0xbd141b69	-0.036158953
124	0x3d08ba84	0.033381
125	0xbcdaa377	-0.026689274
126	0x3c47183d	0.012151775
127	0x3cbf7fca	0.023376364
128	0xbc0339c1	-0.008009375
129	0x3c251382	0.010075452
130	0x3cea9aed	0.028638327
131	0x3b2b5ebc	0.0026148995
132	0xbcb95fe4	-0.022628732
133	0xbc356fde	-0.0110740345
134	0xbc9d32f9	-0.019189345
135	0xbc6ca541	-0.0144436965
136	0xbd037e6a	-0.03210298
137	0x3b618058	0.0034408774
138	0x3d176b95	0.036967833
139	0xbc1236c3	-0.008924189
140	0x3cdf3063	0.027244752
141	0x3d0a7206	0.033800147
142	0x3cd02afe	0.025411125
143	0xbd18a3f3	-0.03726573
144	0x3b84705c	0.0040417146
145	0xbb2dc384	-0.0026514241
146	0xbcce8fad	-0.025214994
147	0x3ce68886	0.028141271
148	0xbc6fb208	-0.014629848
149	0xbc9aa6ce	-0.018878367
150	0x3c8b426e	0.01699945
151	0x3ceaa399	0.028642463
152	0x3d066a16	0.032816015
153	0x3c47d0d7	0.012195787
154	0x3cc7c944	0.024387963
155	0xbce753d1	-0.028238209
156	0xbcfe54ed	-0.031046355
157	0xbc9142e6	-0.017732095
158	0x3ce531fb	0.027977934
159	0x3c4b2cdd	0.012400833
160	0x3c81a726	0.015826773
161	0x3c655a32	0.013998555
162	0xbc52e5a1	-0.012872131
163	0xbd2657c5	-0.040611047
164	0x3b158428	0.0022814367
165	0xbcdbd497	-0.02683477
166	0x3c03b417	0.008038542
167	0xbd0a3574	-0.033742383
168	0xbc9904db	-0.018679073
169	0xbcfc7a11	-0.030819925
170	0xbba3c2f6	-0.0049976064
171	0xbd16b926	-0.036797665
172	0x3cf9d8bb	0.030498853
173	0x3c45457e	0.012040494
174	0x3c95ae25	0.018271515
175	0xbce71af8	-0.028211102
176	0xbd3d87c5	-0.046272058
177	0x3b123de3	0.002231472
178	0xbccbb869	-0.024868207
179	0xba49b509	-0.0007694518
180	0x3d240491	0.040043417
181	0x3bfb53d6	0.007669906
182	0xbd1eaaad	-0.038736988
183	0x3cf5ebc7	0.030019654
184	0x3be0bb79	0.006858286
185	0xbd1f1445	-0.03883769
186	0xbcf1972e	-0.029491033
187	0x3cd3020d	0.025757814
188	0x3c960108	0.018311039
189	0xbd2c9d24	-0.04214205
190	0x3d1414a7	0.036152508
191	0xbd279672	-0.04091496
192	0x3c1e58e8	0.009664752
193	0xbcb383f8	-0.021913514
194	0x3c575bdb	0.013144459
195	0x3d319575	0.043355424
196	0xbcf0693b	-0.029347053
197	0xbcbd8731	-0.023135753
198	0xbd1b289c	-0.037880525
199	0xbd04e3e0	-0.03244388

running_mean f4 [200]
0	0x3e9a78ae	0.30170196
1	0x3eb9218f	0.36158416
2	0x3e3346b6	0.17507443
3	0x3ebcf209	0.36903408
4	0x3ed7d227	0.4215252
5	0x3e96c914	0.29450285
6	0x3ebdf32e	0.37099594
7	0x3e6ed3c4	0.2332297
8	0x3e9ca1cc	0.3059219
9	0x3e81ab83	0.25326166
10	0x3e683c12	0.22679165
11	0x3ebfd9b9	0.37470797
12	0x3e4bf77b	0.19918625
13	0x3e51f6bb	0.20504276
14	0x3e90353a	0.2816561
15	0x3e94aa1a	0.29036027
16	0x3ed91010	0.42395067
17	0x3e82a2f0	0.25514936
18	0x3edf5123	0.4361659
19	0x3e761bf3	0.240341
20	0x3e5b320b	0.21405809
21	0x3e35f921	0.17770816
22	0x3e57ccde	0.21074244
23	0x3e681178	0.22662914
24	0x3e4c2fe2	0.19940141
25	0x3e0fed44	0.14055353
26	0x3e446813	0.19180326
27	0x3e9f2d10	0.31089067
28	0x3e7582c1	0.2397566
29	0x3e353c45	0.17698772
30	0x3e6610aa	0.22467294
31	0x3e4b9296	0.19880137
32	0x3e54d0a2	0.20782712
33	0x3e8e7701	0.27825168
34	0x3e86b62f	0.2631087
35	0x3e853c16	0.26022404
36	0x3e7fe34a	0.24989048
37	0x3e3a84b6	0.18214688
38	0x3e4aa4f6	0.1978949
39	0x3f03ec11	0.51532084
40	0x3e1d9bc9	0.15391459
41	0x3e2aeee6	0.16692695
42	0x3e837132	0.256723
43	0x3ed87939	0.42279986
44	0x3e8b925a	0.27260095
45	0x3e6baca0	0.2301507
46	0x3ec3087f	0.3809242
47	0x3e4dd2d1	0.20099951
48	0x3ecb78dd	0.3974065
49	0x3e85d502	0.26139075
50	0x3e3ca2ce	0.1842148
51	0x3eacc532	0.33744198
52	0x3e3c70a6	0.18402347
53	0x3ed4ef8f	0.4158902
54	0x3e60afa0	0.21941996
55	0x3ebcc441	0.3686848
56	0x3e564649	0.20925249
57	0x3eda5299	0.42641142
58	0x3e7af359	0.24506892
59	0x3e9da63e	0.30790895
60	0x3e6447af	0.2229297
61	0x3e8f01e2	0.27931124
62	0x3ece67a2	0.4031344
63	0x3ed935c4	0.42423832
64	0x3eb8a88b	0.36066088
65	0x3e82ec3b	0.25570855
66	0x3e86024a	0.2617362
67	0x3e847448	0.25869966
68	0x3eba0c8d	0.363377
69	0x3ea83e8f	0.32860228
70	0x3e452f1b	0.1925625
71	0x3eae080d	0.33990517
72	0x3ecae4bb	0.39627632
73	0x3ed33287	0.41249487
74	0x3e6bb33d	0.23017593
75	0x3e2dcb34	0.16972047
76	0x3e999a98	0.30000758
77	0x3e7cda10	0.24692559
78	0x3e516cc1	0.20451643
79	0x3ea2b5a3	0.31779203
80	0x3ea4783a	0.32122976
81	0x3e829f6b	0.2551225
82	0x3e6b4409	0.22975172
83	0x3e50cff7	0.20391832
84	0x3e726515	0.23671372
85	0x3eebd71e	0.4606256
86	0x3ebe71fe	0.37196344
87	0x3eae8931	0.34089044
88	0x3e48b5ad	0.19600554
89	0x3eb7f2c5	0.35927406
90	0x3e4678a3	0.19381957
91	0x3e4ce2c4	0.20008379
92	0x3e3d2eba	0.18474856
93	0x3edb7045	0.42859092
94	0x3e53e637	0.20693289
95	0x3e55829b	0.20850603
96	0x3ec3e213	0.38258418
97	0x3e89aa72	0.26887852
98	0x3eb56c62	0.35434252
99	0x3e803d93	0.25046977
100	0x3f00c8f4	0.5030663
101	0x3eb01cf1	0.3439708
102	0x3ec33514	0.38126433
103	0x3e6801db	0.22656958
104	0x3eb1b43d	0.34707823
105	0x3ecd18e8	0.40058064
106	0x3e74d19f	0.23908089
107	0x3e94fc3f	0.29098698
108	0x3e6e6dae	0.23284027
109	0x3e65beb7	0.22436033
110	0x3e42cd75	0.19023688
111	0x3e87b0e2	0.26502138
112	0x3e3f2f5d	0.18670411
113	0x3e8d43f0	0.27590895
114	0x3e85ad3a	0.26108724
115	0x3ed5839e	0.41701978
116	0x3e80146c	0.2501558
117	0x3e37ef58	0.17962396
118	0x3ed711fe	0.42005914
119	0x3e266e55	0.16253026
120	0x3e7fcdce	0.24980852
121	0x3e91b82a	0.2846082
122	0x3e8d000b	0.27539095
123	0x3eab595f	0.33466622
124	0x3e53e2c9	0.2069198
125	0x3e7bf718	0.24605978
126	0x3e5e5c99	0.2171501
127	0x3eadf767	0.33977816
128	0x3ebbff8a	0.36718398
129	0x3e2583af	0.16163515
130	0x3ec9ceeb	0.39415678
131	0x3e9979ea	0.29975826
132	0x3ecb7c87	0.39743444
133	0x3e82822d	0.2548994
134	0x3e8de7db	0.27715954
135	0x3ea5d3af	0.32388064
136	0x3eb4c0e1	0.35303405
137	0x3e94b75e	0.29046148
138	0x3eb477ca	0.35247642
139	0x3e57a8e8	0.21060526
140	0x3e528263	0.20557551
141	0x3e3b4d46	0.18291196
142	0x3ecd3957	0.4008281
143	0x3e8ac0c8	0.27100205
144	0x3e5fe1bb	0.21863453
145	0x3e564d8d	0.20928021
146	0x3e1dc9e2	0.15409043
147	0x3e9f4051	0.31103757
148	0x3e87e074	0.26538432
149	0x3e815d7f	0.25266644
150	0x3e8536dd	0.2601842
151	0x3e31c0d6	0.17358717
152	0x3ea8182e	0.32830948
153	0x3e88cf93	0.26720867
154	0x3e55fbda	0.20896855
155	0x3e78743d	0.24263091
156	0x3f031f50	0.51219654
157	0x3e6b733d	0.22993179
158	0x3eb0797b	0.34467682
159	0x3eb79bfb	0.3586119
160	0x3e50decb	0.20397489
161	0x3e6a604c	0.22888297
162	0x3e99db08	0.3004992
163	0x3ea22e47	0.31675932
164	0x3e92b989	0.28657177
165	0x3e745641	0.23861028
166	0x3e82a58c	0.25516927
167	0x3ea35d8a	0.31907302
168	0x3e897ced	0.26853123
169	0x3ea4ec46	0.32211512
170	0x3e87c42d	0.26516858
171	0x3e912af0	0.2835307
172	0x3e827739	0.25481585
173	0x3eb4f597	0.3534362
174	0x3e30cb67	0.17265092
175	0x3eceb1bc	0.40369976
176	0x3ebf7316	0.3739249
177	0x3e8fa3e6	0.28054732
178	0x3e54c745	0.2077914
179	0x3e6324bc	0.22181982
180	0x3ec56ea7	0.38560984
181	0x3ea2ab29	0.3177121
182	0x3e9add74	0.3024708
183	0x3e90c881	0.28277972
184	0x3e9971a3	0.2996951
185	0x3e81ff07	0.25389883
186	0x3e6d6b84	0.23185545
187	0x3e9a8670	0.30180693
188	0x3e91cccb	0.28476557
189	0x3edf0920	0.4356165
190	0x3e72bcea	0.23704877
191	0x3f023229	0.5085779
192	0x3e89867c	0.26860416
193	0x3e8a6ee6	0.27037734
194	0x3ea32232	0.31862026
195	0x3e46fa5e	0.19431445
196	0x3e85173f	0.25994298
197	0x3e970139	0.2949312
198	0x3ee5197a	0.44746
199	0x3ea81c6d	0.32834187

running_var f4 [200]
0	0x3e3e9d15	0.1861461
1	0x3e54726a	0.2074677
2	0x3e2c9142	0.16852286
3	0x3e63d4d0	0.2224915
4	0x3ee15584	0.44010556
5	0x3e8210f6	0.25403565
6	0x3ea63723	0.3246394
7	0x3e4a0031	0.19726636
8	0x3ec6a5dc	0.38798416
9	0x3e2be671	0.16787125
10	0x3e029980	0.12753868
11	0x3e6eaf6c	0.23309106
12	0x3e80386e	0.25043052
13	0x3e238f62	0.15972665
14	0x3e15638a	0.14588752
15	0x3e0b0ece	0.13579866
16	0x3e7c5477	0.24641596
17	0x3e0ffa4f	0.14060329
18	0x3eef9bc2	0.4679852
19	0x3e3624e4	0.1778751
20	0x3e281983	0.16415982
21	0x3ddcd767	0.10783272
22	0x3e5e8cf9	0.21733464
23	0x3e023011	0.12713648
24	0x3df5c813	0.12001052
25	0x3d9bcf36	0.07607882
26	0x3e68d52d	0.2273757
27	0x3e7fe8c8	0.24991143
28	0x3e550e1f	0.20806168
29	0x3dd39df7	0.10332864
30	0x3de9f5b0	0.11423814
31	0x3e2cd41f	0.16877793
32	0x3e2aed7b	0.16692154
33	0x3e7503d6	0.23927245
34	0x3ea42ec8	0.3206694
35	0x3ed72599	0.42020872
36	0x3ebeb2d7	0.3724582
37	0x3df58f67	0.119902425
38	0x3df46ba8	0.11934596
39	0x3f2990a6	0.6623634
40	0x3e61edeb	0.22063415
41	0x3db39d33	0.08770218
42	0x3e0899dc	0.13339943
43	0x3ed1dd64	0.4098922
44	0x3e4f0397	0.20216213
45	0x3e3ee268	0.18641055
46	0x3f0dfbde	0.55462444
47	0x3e086e68	0.13323367
48	0x3ef73d2b	0.48288855
49	0x3e56a15a	0.20959988
50	0x3e1d32e2	0.15351442
51	0x3ef6c9b3	0.4820076
52	0x3e0d7d21	0.13817264
53	0x3ed42d56	0.4144084
54	0x3e8df220	0.2772379
55	0x3e4b5cc0	0.198596
56	0x3e2bf767	0.16793595
57	0x3e955332	0.29165035
58	0x3e329009	0.17437758
59	0x3ec72441	0.38894847
60	0x3e621166	0.2207695
61	0x3e54370f	0.20724128
62	0x3ec2a22e	0.38014358
63	0x3edddd81	0.43333057
64	0x3e9ef48f	0.31045958
65	0x3e6e92b5	0.23298152
66	0x3e681fe4	0.22668415
67	0x3ea6db98	0.32589412
68	0x3eb51b58	0.35372424
69	0x3eb10bde	0.34579366
70	0x3e4538b0	0.19259906
71	0x3e324a40	0.17411137
72	0x3e8528c4	0.26007664
73	0x3ef65c88	0.4811747
74	0x3e3f77af	0.18698
75	0x3df46ad3	0.119344376
76	0x3e791b77	0.24326883
77	0x3e53bd88	0.20677769
78	0x3e7ec2d5	0.2487901
79	0x3e35e0f8	0.177616
80	0x3e9699d5	0.2941424
81	0x3e437886	0.19088945
82	0x3e484b71	0.19560029
83	0x3e064c9c	0.13115162
84	0x3e1b547d	0.15168948
85	0x3e853f3e	0.26024812
86	0x3ea9d17b	0.33167633
87	0x3ef94ece	0.48692936
88	0x3e04df8a	0.12975898
89	0x3e4a5b78	0.19761455
90	0x3e544457	0.20729195
91	0x3e01df2c	0.1268279
92	0x3df9ffcd	0.12206993
93	0x3e8c3f04	0.27391827
94	0x3e2c5b8c	0.16831797
95	0x3e506606	0.20351419
96	0x3e5bb3ee	0.21455356
97	0x3e18bb4a	0.14915195
98	0x3e31b44f	0.17353939
99	0x3e4f9244	0.2027064
100	0x3e9373b7	0.2879922
101	0x3e2eebc4	0.17082125
102	0x3e538c9e	0.2065911
103	0x3e5d7112	0.21625164
104	0x3ed5fbae	0.4179358
105	0x3ef9fd1b	0.48825917
106	0x3e55f731	0.20895077
107	0x3e414155	0.18872578
108	0x3e8b11eb	0.27162108
109	0x3e574417	0.21022068
110	0x3e0403ba	0.12892047
111	0x3dfdc442	0.12390949
112	0x3dd8a1e9	0.10577757
113	0x3ef04a73	0.469318
114	0x3e8928a3	0.26788816
115	0x3e63f01f	0.22259568
116	0x3e074d6d	0.1321313
117	0x3dcad389	0.099036284
118	0x3e7672fd	0.24067302
119	0x3e13d7c1	0.14437772
120	0x3e85bc03	0.26120004
121	0x3e60b1c9	0.2194282
122	0x3ebd5103	0.3697587
123	0x3e554b45	0.20829494
124	0x3df1dd83	0.11809828
125	0x3ec73983	0.38911065
126	0x3dda1766	0.10648994
127	0x3e4a2185	0.19739349
128	0x3e4d200d	0.20031758
129	0x3de72f16	0.11288278
130	0x3e443d4b	0.19164006
131	0x3e0fb09c	0.14032215
132	0x3ebc5909	0.36786678
133	0x3e151ae1	0.14561035
134	0x3e0ef655	0.13961156
135	0x3e3b6fbc	0.18304342
136	0x3ed1dfde	0.4099111
137	0x3eb455fd	0.35221854
138	0x3e3f9ec6	0.18712911
139	0x3e93fd56	0.28904217
140	0x3e15a2cc	0.14612883
141	0x3e87e5a3	0.26542386
142	0x3eb916f7	0.36150333
143	0x3e5cbbba	0.21555987
144	0x3e902132	0.28150326
145	0x3e1043eb	0.14088409
146	0x3e0369a4	0.12833267
147	0x3e19d467	0.15022431
148	0x3e0d2d14	0.13786727
149	0x3e02b9af	0.12766145
150	0x3e0aa4c7	0.1353942
151	0x3e1d384c	0.15353507
152	0x3e2e8e77	0.17046534
153	0x3e847286	0.25868624
154	0x3ea68ba3	0.3252841
155	0x3ecbf7c2	0.39837462
156	0x3eca4c32	0.39511257
157	0x3e0817c4	0.13290316
158	0x3e2a4891	0.16629244
159	0x3eaa7e48	0.3329947
160	0x3e24a5c4	0.1607886
161	0x3e3f9f1a	0.18713036
162	0x3eb70a58	0.3575008
163	0x3f195261	0.59891325
164	0x3e0f22d1	0.13978125
165	0x3e2756a5	0.16341646
166	0x3e660c4f	0.22465633
167	0x3eb74dd8	0.35801578
168	0x3e6f1582	0.23348048
169	0x3e9bd3ff	0.30435178
170	0x3e12320b	0.14276902
171	0x3eb8e2b4	0.3611046
172	0x3e614dd4	0.22002345
173	0x3e2c3726	0.16817912
174	0x3da708e5	0.08155993
175	0x3ed2cc2b	0.41171393
176	0x3ea3f608	0.32023644
177	0x3e51487c	0.20437807
178	0x3dc8764b	0.097881876
179	0x3e35c8c2	0.17752364
180	0x3e41fe75	0.18944724
181	0x3e2e31ef	0.17011236
182	0x3eb5cd98	0.35508418
183	0x3ec6e1c0	0.3884411
184	0x3e84c209	0.25929287
185	0x3e576c28	0.21037352
186	0x3e59d9da	0.2127451
187	0x3e17b710	0.14815927
188	0x3e0fc504	0.14039999
189	0x3f08f173	0.5349342
190	0x3e53550f	0.20637916
191	0x3f01a9ad	0.5064953
192	0x3e09b349	0.13447298
193	0x3e800d7c	0.25010288
194	0x3e32ac3f	0.17448519
195	0x3db91a7a	0.09038253
196	0x3e56e2c2	0.20984939
197	0x3e4efff8	0.20214832
198	0x3edd1f40	0.43187904
199	0x3ee2a6ce	0.44267887
