AutogluonModels/ag-20250105_183702/models/NeuralNetFastAI_BAG_L2/S1F2/model-internals.pkl (torch, 247219 bytes, 27 tensors)

weight f4 [5, 4]
00000000: d1c4 8f3b 9a05 933a a985 d13b 163f 903b
00000010: 924b c6bc 31da 713c 103b 4bbd bc53 3b3d
00000020: eabb 2a3d 8c62 ab3d 8a05 74bc b1aa dc3c
00000030: e6a8 ddbc 01c0 76bc e1b8 d8bd 8413 9f3d
00000040: 60f4 703d 984f aabd b3ea af3d b485 81bd
0.004387476 0.0011216879 0.0063941074 0.0044020517 -0.024205957 0.014761494 -0.049616873 0.045734152
0.041683115 0.08368406 -0.014893899 0.02693686 -0.027058076 -0.015060426 -0.10582138 0.07767394
0.058826804 -0.083159626 0.08589687 -0.0632433

weight f4 [6, 4]
00000000: 0b1b 0fbb 3541 8ebb c3ba 3eba 71cd b1b9
00000010: 9c97 e33c ccd6 8ebd 2747 90bd b13d f83c
00000020: 82cf 0f3d 2a78 963c 539b b33c 42fe 00bd
00000030: 7242 d0bc e9b9 a63d 39e9 8c3d 2597 093b
00000040: 2822 ab3c 7c66 eebc d3c3 babc 5681 ec3b
00000050: 2a2b dd3b bfab 353d c585 253d 65db 7cbb
-0.0021836187 -0.0043412694 -0.00072757545 -0.00033913137 0.027782254 -0.06974563 -0.07044821 0.030302854
0.035110004 0.018367846 0.02192465 -0.03149248 -0.025422309 0.08140928 0.06880421 0.002099463
0.02089031 -0.029101603 -0.022798454 0.0072175665 0.0067495303 0.044353243 0.040410776 -0.0038582918

weight f4 [6, 4]
00000000: f5fb b6bb 616e ae3b 870a 853b f304 813b
00000010: 490b 23bd fa34 513d 4898 ed3c 2606 533d
00000020: d3aa 9d3c ac26 0fbd 0a95 a73d 3824 e0b8
00000030: 483b 7e3b ea7b 013c 607e 56bd 2a4b deba
00000040: f2b6 e1bc ccfe 713d 879a 853d c943 3f3d
00000050: 1438 593d a3f9 103d b316 76bd 5560 33bc
-0.005584235 0.005323217 0.004060093 0.0039373576 -0.039805684 0.051075913 0.029003277 0.051519535
0.019246494 -0.03494899 0.08182724 -0.000106878986 0.0038792659 0.007903079 -0.052366614 -0.0016959656
-0.027553055 0.059080884 0.065236144 0.046695504 0.053031996 0.035394322 -0.06008024 -0.01094826

weight f4 [6, 4]
00000000: f0fe 18bb 3646 e73b 0ba9 bd3b 9074 2f3b
00000010: 2b69 5ebb 7229 53bb e83a 793d 1771 2c3c
00000020: ba2c 22bd 8681 043d 0560 003b d081 fd3b
00000030: 9e37 d6bb d93f ffbc ca43 473c a270 c1bb
00000040: 84b9 f23a 7bcb 0b3d 7a70 14bd 9a0e bb3c
00000050: f1d6 0c3d 3b8d b4bc 64a6 223c 4842 6dbc
-0.0023345314 0.0070579303 0.0057879738 0.0026772358 -0.0033937197 -0.0032220748 0.060847193 0.01052501
-0.039593436 0.032350086 0.0019588482 0.007736422 -0.006537392 -0.031158375 0.012162158 -0.0059033195
0.0018518423 0.0341296 -0.03624008 0.022834111 0.03438467 -0.02204 0.009927366 -0.014481135

weight f4 [6, 4]
00000000: 67f0 b03b 6999 7b3c fa8d 313c 4ac5 4b3c
00000010: 6dee 41bd b201 8b3b 3d0e c2ba 2b23 af3c
00000020: 7560 bebc 0d08 463c a7ad c93c a3ae 8fbc
00000030: 530a 8cbc 359b 4e3c c184 7c3d 89a2 92ba
00000040: 13b4 443b d5dc 363d 2342 013b 25d5 2abd
00000050: 1542 613d 0803 5ebc 8be7 29bd c405 2b3d
0.005399752 0.0153564 0.0108370725 0.012437174 -0.04734652 0.0042421455 -0.0014805269 0.021379074
-0.023239354 0.01208688 0.024618937 -0.017539328 -0.017094767 0.012610246 0.06165004 -0.0011187355
0.003001456 0.044644196 0.0019723258 -0.041707177 0.05499466 -0.013550527 -0.041480582 0.041753545

weight f4 [6, 4]
00000000: f93b 273b 4be4 483c 97bb 9ebb 424e 943b
00000010: 0bb4 83bc ee38 503c 12ea d13b 7f42 92bc
00000020: 0ae1 65bd 5bf5 e63c f73a b53c 283c 4bbd
00000030: 8b30 31bd f29e 26bd 7592 d0bc bc75 983d
00000040: cc0f ff3c 8d5b 26bd 1629 ddbc 4ea6 1fbc
00000050: c903 77bc e646 f03c cca8 25bd 3224 01bc
0.0025517924 0.012261461 -0.00484414 0.0045259306 -0.016077062 0.012708886 0.006406077 -0.017853973
-0.056122817 0.028193166 0.022122843 -0.049617916 -0.043259185 -0.040678926 -0.025460461 0.07444331
0.031135462 -0.040614653 -0.02699713 -0.00974424 -0.015076586 0.029330682 -0.04044418 -0.007882165

weight f4 [6, 4]
00000000: 238d b2bb 310d cebb 8583 cfbb 3f58 1f3c
00000010: 181f cb3c f5b7 bcbc 1a0c 5e3d de44 45bd
00000020: 4ce2 96bd 5230 963d a692 40bc 9c1d 72bd
00000030: 33c1 aab9 5529 87bc aece da3c a7fd 90bc
00000040: 27f5 af3c 5ad5 d33c 15ee 873c b275 753d
00000050: bc6d a4bb 9171 0d3d e7b9 fa3a a943 023d
-0.0054489537 -0.0062881936 -0.006332817 0.009725629 0.0247951 -0.023036936 0.05421076 -0.04816138
-0.073673815 0.07333435 -0.011753714 -0.05911027 -0.0003256887 -0.0164992 0.02670988 -0.017699076
0.021479202 0.02585857 0.016593019 0.059926696 -0.005017964 0.034532133 0.001912889 0.031802807

weight f4 [6, 4]
00000000: 5e35 353b d56b 20bc 8b50 113c 4241 803c
00000010: 6c6b 293d 4bea 23bd 1c3b e13c 5e0b 8ebd
00000020: 1b69 82bd d9c4 ddbc 683a 8d3c 9e9e 38bd
00000030: db85 88bc 41d6 103d 14d0 7fbb 8ac0 953c
00000040: 59f6 c83d a0e4 18bd 3ced 1dbd af0a e43d
00000050: 297a 67bd caee 373d d181 363c e08f 59bb
0.0027650218 -0.009791334 0.008869301 0.015656117 0.04136221 -0.04001836 0.027494006 -0.06935762
-0.063677035 -0.027071403 0.017239764 -0.045073144 -0.01666539 0.03536058 -0.0039033936 0.018280286
0.09812612 -0.03732741 -0.038556322 0.1113485 -0.056512985 0.04490546 0.011139349 -0.0033197328

weight f4 [5, 4]
00000000: 4177 06bc eb4e b8ba 9134 823a d210 e4bb
00000010: 9b07 c03c ea3c 1c3c 5c25 42bd 73d1 4e3c
00000020: 5f54 18bd 7804 26bd 1084 ec3d 4058 623d
00000030: 2830 843d 7843 34bd 164f ccbd 6ac2 78bd
00000040: fc47 193d 99cf d7bc 6055 5cb9 ea2a 1a3c
-0.008207143 -0.0014061605 0.0009933879 -0.006960013 0.023441127 0.009536007 -0.04739891 0.012623179
-0.037189838 -0.040531605 0.115486264 0.055259943 0.064544976 -0.044009656 -0.09976022 -0.060732283
0.037422165 -0.026344107 -0.0002101264 0.009409646

weight f4 [6, 4]
00000000: 86ed 3d3c bf72 9139 96b8 93bc 6325 b6bb
00000010: 5712 3f3c 430e 96bc 5e85 65bd 76b9 283d
00000020: bcf3 643b 44fd 94bc 87cd 183d b25c 003c
00000030: b64c 443d 1822 39bd 3794 5ebb b996 c2bc
00000040: b0cd 5dbd 9417 3c3d dc4d 1b3d 5563 65bd
00000050: 89f4 9e3c 2b24 24bd 08fc f03c 08eb 833b
0.0115922745 0.00027742048 -0.018032353 -0.005558656 0.011662087 -0.018317347 -0.056035392 0.041192494
0.0034935316 -0.018187173 0.03730538 0.0078346 0.04792472 -0.04519853 -0.0033962855 -0.02375351
-0.054151237 0.045920923 0.03791605 -0.056002934 0.019403713 -0.040073555 0.029417053 0.0040258206

weight f4 [6, 4]
00000000: 7608 24bc 2894 84bb 932e 273c de92 26bb
00000010: 7f57 3cbd 764b 88ba a888 6fbc e013 0d3c
00000020: bbbb 4fbc 2a2a f6bc ee6e 2dbd 63ca 633d
00000030: 9147 fa3b f236 4d3c 7934 23bd 330f 8c3c
00000040: 4072 b73d 3d2d 89bd 83e6 46bd 913c 2f3d
00000050: 4885 e7bd c4f5 b33d bd64 343d 2abb 50bd
-0.010011783 -0.004045982 0.010203975 -0.002541713 -0.04598188 -0.0010398466 -0.014619984 0.008610696
-0.012679036 -0.030049402 -0.04234212 0.055612933 0.007637926 0.012525307 -0.039844964 0.017097091
0.08957338 -0.06698082 -0.048559677 0.04278237 -0.11304718 0.087871104 0.044041384 -0.050959744

weight f4 [85]
00000000: bb57 7f3f 0362 723f 97e1 703f a540 753f
00000010: f2e5 753f b6a7 773f a394 743f fb3c 753f
00000020: aca2 793f 3d3f 6e3f de72 763f a30a 753f
00000030: 14a1 713f 3424 753f 94c0 763f f485 743f
00000040: efa4 733f afd8 753f a24b 7a3f 7f84 763f
00000050: 4198 753f 7334 783f 0bc6 703f 343c 733f
00000060: b2fc 753f 4746 793f 0fe6 773f dda4 743f
00000070: e453 773f 46c8 753f 72d0 7a3f 70ca 7b3f
00000080: 159a 7d3f 63c7 783f bba3 763f a6b2 793f
00000090: b42c 723f c3f0 6f3f d776 7c3f 4042 6e3f
000000a0: 1e54 783f 9247 7a3f a538 743f 7014 7b3f
000000b0: 255b 763f e64a 843f e845 7f3f 9d64 7a3f
000000c0: ddc3 833f a220 823f a05f 883f 2fad 7b3f
000000d0: c433 7a3f b20e 7e3f 272a 7f3f faa9 833f
000000e0: 28e4 803f 0d60 833f 09cc 853f 541b 753f
000000f0: 72a8 763f 9a91 7e3f 804f 7e3f f4f2 833f
00000100: 1a12 843f 453b 813f 3bdc 753f fb86 753f
00000110: 4a18 7a3f ecbc 773f b604 723f 6fb9 7c3f
00000120: 03f7 733f b5d2 7d3f 36f3 733f 835c 7c3f
00000130: 0675 773f b4e9 813f a24f 7e3f 1d1f 883f
00000140: cfb2 803f 7155 8b3f 2f16 8d3f 6a44 8e3f
00000150: 5f35 823f
0.9974324 0.94680804 0.9409422 0.95801765 0.96053994 0.9674028 0.955393 0.95796174
0.9751384 0.93065244 0.96269023 0.95719355 0.9438641 0.95758367 0.963876 0.95516896
0.95173544 0.9603376 0.97771657 0.96295923 0.95935446 0.9695503 0.9405219 0.9501374
0.9608871 0.9737286 0.96835417 0.9556406 0.9661238 0.9600872 0.9797431 0.9835577
0.99063236 0.9717924 0.9634358 0.9753822 0.9459946 0.9372675 0.98618835 0.9306984
0.9700335 0.9776546 0.9539893 0.9807806 0.96232826 1.0335357 0.99716043 0.97809774
1.0294148 1.0166209 1.0654182 0.9831113 0.9773524 0.99241173 0.99673694 1.0286248
1.0069628 1.0263687 1.0452892 0.95744824 0.9635078 0.9944092 0.9934006 1.0308518
1.0318024 1.0096213 0.9603917 0.9590909 0.9769331 0.96772647 0.9453844 0.9872045
0.95298785 0.9914964 0.95292985 0.9857866 0.9666294 1.0149446 0.9934026 1.0634495
1.0054568 1.088545 1.1022395 1.1114628 1.0172538

bias f4 [85]
00000000: 204c 0abc 595b 463d 8d6c b33c 366c 90bb
00000010: 169c d8bc c876 9dbc 0583 9ebc d85a ea3c
00000020: 99ba 903b fc01 393b ae55 b2bc a6a8 73bc
00000030: f9bd 4dbb aad3 5a3d a75d a5bc da71 c9bc
00000040: 6abe c13c 802d be3c e88c ea3c 378d 0cbc
00000050: 2faa 4cbd c87a 16bd 7758 d7bc 7c1b 133c
00000060: 645c 16bd 5295 e0bc 2896 ecbc 0aa6 04bd
00000070: 94d6 fc3c 4ab5 5cbc 5f08 72bd 09e7 dfbc
00000080: c0d4 0dbd 7ccf 2dbd 72e5 0c3d 9b5d 67bc
00000090: b0f7 7f3c bc0e e4bb 6711 c1bc d2ee 8f3c
000000a0: aa99 6abc 7c39 f3bb 9223 2a3d 1e8d 7c3d
000000b0: 4cd5 0cbd adf9 a4bc 6c15 8cb9 baca 33bd
000000c0: badb 47bd b2e5 82bd 5caf 6cbd af11 85bc
000000d0: 8f23 1fbb eeda d63c 6307 e0bc 2413 68bc
000000e0: 48de 58bd b2c7 c5bc 93d1 8bbb a0f3 35bd
000000f0: 64df c63a f57d 98bd 7e0f 01bd 915c 4ebd
00000100: 269e 19bd 44a3 d8bc 1146 38bd 12bc 5cbd
00000110: c144 1f3c 0424 153d 52df 053d 38bf b4bc
00000120: 8ff2 0a3d ab72 983d 0d08 59bd 737f fdbc
00000130: 5431 65bc bc2a 393d eaae 61bd c503 31bd
00000140: e48f ffbb d05e 133d ada7 13bd 9e55 b2bc
00000150: b2c7 d53c
-0.008441001 0.04842696 0.021902347 -0.004407431 -0.026441615 -0.019221678 -0.019349584 0.02860777
0.0044167754 0.0028229943 -0.02176937 -0.014871752 -0.003139375 0.053424515 -0.020186258 -0.024590421
0.023650367 0.023215055 0.028631642 -0.00857859 -0.049966987 -0.036738187 -0.0262873 0.008978721
-0.036709204 -0.027414951 -0.028880194 -0.03238491 0.030864038 -0.013470957 -0.059090015 -0.027331846
-0.034626722 -0.0424342 0.034398504 -0.014121438 0.015623018 -0.0069597643 -0.023567868 0.017569933
-0.014318863 -0.007422624 0.04153783 0.061658017 -0.034383103 -0.020138586 -0.0002671884 -0.043894507
-0.048793532 -0.06391467 -0.057784423 -0.016243784 -0.002428267 0.02622744 -0.027347272 -0.01416472
-0.05294636 -0.024143074 -0.0042669266 -0.044421792 0.0015172777 -0.074458994 -0.031508915 -0.050381247
-0.037504338 -0.026445039 -0.044988696 -0.053890295 0.009720982 0.0364113 0.032683678 -0.022063836
0.03392273 0.07443746 -0.052986193 -0.030944562 -0.0139888115 0.04520677 -0.05509845 -0.043216486
-0.0077991355 0.035979092 -0.03604858 -0.021769341 0.026096199

running_mean f4 [85]
00000000: 0ade 163c 5f3d babb ffd4 293b edb4 fc3b
00000010: 2d63 4dbb 05dd a53b 5284 0cbc 0440 3b3c
00000020: 45da 2d3c db9e 2e3c 45ef 3fbb 3848 8dbb
00000030: e154 183a 71e9 613a 8efe 8d3a e660 2a3c
00000040: c630 14ba 50f4 0e3c 9632 c53b 0cf8 23bb
00000050: 3953 8dbc c433 2bbc f2ae 0dbc d50a 12bc
00000060: 978d 523b 939a b9bc 1215 bdbc 3e3d 1cbc
00000070: ad7b 803b 8c95 523c 53fb 673b d0e3 0a3b
00000080: 52c4 703b abfb 673b b9e8 7b3b a2aa bd3b
00000090: c4b4 34bb bdbd e6b8 d97f 7c3b e89a 4d3b
000000a0: 6a73 4f3b fd90 8e3b 1c22 763b 0614 67bb
000000b0: 845c 2c3b 4acb a2bc 3fc9 e33a 1dbe ce3b
000000c0: d442 ce3a 60e9 e3bb 82e4 84bc 3735 1b3c
000000d0: 99b0 653c 720e ad39 4662 81bb ba81 433c
000000e0: aeab cf3a 8d52 8bbc 3cf4 af3b 185e 033c
000000f0: d095 3e3b 872f c7bb c963 4dbc b284 29ba
00000100: bb69 eebb cc2e 25bb 1f8c aa3b c586 a43b
00000110: 8583 4b3b 2302 b43b 8d73 3ebc d2a4 c03b
00000120: 920a 49bb 3321 9d3b 9e3c 0fbc c6e2 453b
00000130: 9ed7 59ba 81bb 8d3b dd75 49bb ccce b5bb
00000140: 2072 393c 6b3a c93b 3d85 54bb 1a87 f7bb
00000150: 59cd 213c
0.009208212 -0.0056835855 0.002591431 0.0077119977 -0.003133963 0.005061748 -0.0085764695 0.011428837
0.010611122 0.010657991 -0.0029286903 -0.0043115877 0.0005810988 0.00086178543 0.001083331 0.010399079
-0.000565302 0.008725241 0.006017993 -0.0025019674 -0.017251598 -0.010449354 -0.008647667 -0.008913715
0.003212785 -0.022656715 -0.023081336 -0.009536086 0.0039209933 0.012853038 0.0035397604 0.0021192916
0.003673811 0.0035397809 0.0038438274 0.0057881633 -0.0027573565 -0.00011002596 0.0038528352 0.003137285
0.0031654486 0.00435078 0.0037556952 -0.0035259738 0.002630026 -0.019872326 0.0017378702 0.0063092844
0.0015736469 -0.0069553107 -0.016222242 0.009473137 0.014019155 0.00033007894 -0.0039484827 0.011932785
0.0015844011 -0.017007137 0.005369691 0.008018039 0.0029080994 -0.0060786637 -0.012535998 -0.00064666115
-0.0072757876 -0.0025204895 0.005204692 0.0050209486 0.0031053734 0.005493419 -0.011624229 0.005879023
-0.0030676466 0.0047952174 -0.00874248 0.0030194982 -0.00083100225 0.0043253307 -0.0030740418 -0.0055483337
0.011318713 0.006140997 -0.003242805 -0.007553947 0.009875619

running_var f4 [85]
00000000: aaf7 813f 76c1 7e3f 7c80 603f 6e9f 763f
00000010: a6cc 6d3f 6148 7b3f 6b9e 473e c6e3 703f
00000020: 8178 713f ede2 733f d320 843e e93c 853e
00000030: c858 873e 8d7d 383f f771 333f da46 ab3e
00000040: ead0 a53e c712 a33e 4914 a53e ae3d 3e3f
00000050: 0e96 2f3f 1c8d 353f f5a6 333f 5543 373f
00000060: 0a63 323f b9c9 393f 6ee1 3a3f cb01 263f
00000070: 9925 493f da0a 393f cfbd 483f 2c1c 483f
00000080: 52ab 483f cfbd 483f 480d 403f 20e9 3c3f
00000090: 3dcd 483f 32ab 2b3f 9e67 483f 12ef 483f
000000a0: f3a3 473f 758b 483f 2396 483f bebb 013e
000000b0: 967e 0c3f 4ff2 7f3f bc41 803f 7188 803f
000000c0: d02d 863f 84bc 803f 188c 763f ff9b 803f
000000d0: d447 833f acd7 803f c2cd 7e3f 09f5 7c3f
000000e0: 26bd 783f 78e3 793f 83fa 7d3f 5b0b 7f3f
000000f0: 5e3a 7d3f 177b 7c3f b456 7c3f 3917 813f
00000100: e25a 793f 801b 803f cc8f 703f d71c 6e3f
00000110: 79ed 753f 41a0 813f 6be3 813f 0a89 813f
00000120: 8252 7b3f 73b3 813f 4f3b 823f f9c9 803f
00000130: bb42 813f e252 803f d3d2 7f3f 1262 7b3f
00000140: 072d 8d3f ad7c 803f 6e8a 803f de2f 7b3f
00000150: cd2c 943f
1.0153706 0.9951395 0.8769605 0.9633702 0.92890394 0.98157316 0.19494025 0.94097555
0.943245 0.95268136 0.25806293 0.26023033 0.26434922 0.72066575 0.7009577 0.33452493
0.3238595 0.31850263 0.3224204 0.74312866 0.6858834 0.7091844 0.7017663 0.71587116
0.6968237 0.7257343 0.7300023 0.64846486 0.78572994 0.72282183 0.78414625 0.78167987
0.78386414 0.78414625 0.75020266 0.7379322 0.7843817 0.670581 0.7828311 0.7848979
0.7798454 0.78337795 0.7835409 0.12669274 0.54880655 0.9997911 1.002006 1.0041639
1.0482731 1.005753 0.96307516 1.0047606 1.0256295 1.0065818 0.9953271 0.98811394
0.9716362 0.97612715 0.99210376 0.996267 0.98917186 0.9862532 0.985698 1.0085212
0.974043 1.0008392 0.93969417 0.93012756 0.9606548 1.0127031 1.0147527 1.0119946
0.9817277 1.0132889 1.017435 1.0061637 1.009849 1.0025294 0.9993107 0.9819652
1.1029366 1.0038048 1.0042245 0.98119915 1.1576172

weight f4 [200, 129]
00000000: 682c 9c3d f4c4 3cbd a929 d43c f032 66bd
00000010: 4867 3abd 53c7 bebc c843 e6bc 870d 0c3c
00000020: 15e5 87bd 0303 033b d045 1dbd b0a3 18bc
00000030: f01a c33d 556e 5b3d 8365 87bd ed38 56bd
00000040: d66e ba3c 5c01 d9bd 435e b8bd 25fd cc3d
00000050: 58d7 833d f850 fa3c ae61 723d b5f9 07bd
00000060: a868 0cbc e820 b93d 8af3 b6bd e585 d93d
00000070: dd81 cbbc c674 a53d 9be4 40bd 1a61 e73c
00000080: 20ec a5bd 9cd1 55bb 04c8 073d 111c be3c
00000090: 4cea 633d 0c59 bd3d 8726 193d 8228 cf3d
000000a0: 935c 933d b673 a83b c55f 62bd 2177 70bd
000000b0: 81ed 9a3c 9053 f2bc eb2c 5c3d d9d4 2f3d
000000c0: 5232 033d 967a 153d ba2d 8c3d 2da8 153d
000000d0: fd0b 35bd bd02 73bd 92fa fd3c 0dae e53b
000000e0: 823f 7d3d acc8 84bd 7021 40bd 171b a43d
000000f0: ce94 e83c c8a0 0bbd 68c0 843d cabb 4dbd
00000100: f654 813d f01c 2b3d 3d0c a73d 671a a5bd
00000110: 369b 98bd 1c28 593d 1707 a83d 8063 8d3d
00000120: 09c8 303d 985c 14bd d54d bc3d 86d1 50bd
00000130: a477 613d f09f efbc c589 c5bb c243 463d
00000140: 1867 a03a 1f2c 913c 8f78 68bd 6be4 82bd
00000150: bd0a 853d 529e 53bb b51c babc 1c23 bbbb
00000160: 29d5 1cbd 8aa4 38bd ffdd 843d 048f c43d
00000170: 461b 1e3d e62f a0bc f76e 2c3d 1488 663d
00000180: bf7d 05bd edba 813d fa2d d93d 56a2 53bd
00000190: b3a6 0cbd 2f9c e03c 189c d33d c591 f1bc
000001a0: 997b 1e3d cdde b13d e78f 223d 0ee0 413d
000001b0: 7888 f33d 1c2c b63d 0ce4 09bd a2a4 b43c
000001c0: 0d8f 5d3d 38d4 733d f9e9 a5bd 4d05 8d3d
000001d0: 12e9 d3bc f766 d3bd 7cfd d63c be96 dcbc
000001e0: d01c 673b 1723 c3bd 691d c5bd b14b 253d
000001f0: 25ed 63bd 3cf1 513c b1d6 4ebd 9bf0 073e
00000200: 06c6 10bd 3142 03bd e89b b1bc 8899 aa3d
00000210: ce7f 3abd 7f4c 92bd a713 bebc fb4b 17bd
00000220: a1a9 993c 2c7b 9abc 6203 8a3c 8714 14be
00000230: 5644 9abd 1396 ad3d 2376 d3bd 258b a0bd
00000240: 5f5b a5bd ca87 593d 7265 52bd e91d 01bd
00000250: 5c11 df3d 863b 8abd ed67 ea3c b298 513d
00000260: bb11 103e a633 eebc 70c1 39bd 2629 43bc
00000270: 9370 d23d 4b89 28be 5692 d5bb 82f5 4e3d
00000280: 7dac b8bd ab7a cbbd 5850 a9bb 168d af3d
00000290: d56f f93c 8c4b b43d 20dd fbba 142e 953c
000002a0: 4696 e33d 6e23 f8bd d5cd ef3c 0469 bf3d
000002b0: 7f69 02be cc61 49bc a970 35bd ef00 f13c
000002c0: 52e1 e2bc cd49 bc3d 0b38 70bb 729b 6cbd
000002d0: 6660 0c3d 897b d93b f77e 2e3d 28ca 763d
000002e0: 4605 60bd a6bd 253d 88ea e6ba 7fbe 4bbd
000002f0: f286 7d3d bcab 173d aa17 7cbd 1d1f 773c
00000300: 63f6 493d 77df bf3c a2b8 8e3d 6744 f8bc
00000310: 2594 7dbd 208a 883d 6513 a63c 1e16 7a3d
00000320: d6d6 1cbd adf9 23bd 8e79 613c ac21 82bd
00000330: ae58 5a3d e070 ac3d d72a 253d 10eb 943c
00000340: 3778 4a3d 0c0b 3dbd e2c5 e63d d1e3 8ebd
00000350: f848 82bd 8e42 29bb f8fc b73d 06ac d73c
00000360: 4295 4c3d f2b0 d4bc 4330 903d 72fe 963c
00000370: 727b 8d3d 3fc1 a33d 25d9 853d 3206 bc3c
00000380: b86d 883c dcf5 e5bc 8ada 083c f2b8 a73d
00000390: f2aa 45bc f022 b13d 63e3 75bc 0e02 e23c
000003a0: e1a4 ec3c 94f2 22bd aca4 113d 6feb ea3c
000003b0: 705b a73c 5a8f 853c fc2e d03d 9da8 bd3d
000003c0: 49a0 08bd 7393 f93c 6889 a3bd 7ef2 64bd
000003d0: 5fa0 e43c 1230 40bc c3ce 56bd 3328 86bd
000003e0: 9b39 02bd 3628 a63c 91d0 eebd 896b 5cbd
000003f0: 7e11 5a3d 3110 a3bd 514c fbbd 9c8e dc3b
0.07625657 -0.046086267 0.025898771 -0.05620092 -0.045508653 -0.023288405 -0.028108492 0.008548147
-0.06635491 0.0019990809 -0.038396657 -0.00931637 0.09526622 0.053572018 -0.06611159 -0.052300382
0.022757929 -0.105959624 -0.09002354 0.10009221 0.06437558 0.030556187 0.059175186 -0.033197124
-0.008569874 0.090394795 -0.0893317 0.106212415 -0.024842197 0.080789134 -0.047093015 0.028244544
-0.08101678 -0.0032626158 0.033149734 0.023206742 0.055643365 0.092455 0.03739026 0.10115148
0.071953915 0.005140747 -0.055267114 -0.05870736 0.018912079 -0.029580861 0.053753775 0.042927597
0.03203041 0.03649386 0.06844659 0.036537338 -0.044200886 -0.059328783 0.03100327 0.007009274
0.061828144 -0.064835876 -0.04690689 0.080129795 0.028391268 -0.03408888 0.06482011 -0.050227918
0.06315033 0.041775644 0.08156631 -0.080616765 -0.07451479 0.053016767 0.08204477 0.06903744
0.04315952 -0.036221117 0.09194533 -0.050981067 0.05504574 -0.029251069 -0.0060283863 0.048404463
0.0012237756 0.017721234 -0.0567556 -0.063912235 0.06496189 -0.0032290411 -0.022718767 -0.0057109725
-0.038289223 -0.04507879 0.06487655 0.095975906 0.03860023 -0.01955409 0.04209801 0.056282118
-0.032590624 0.063344814 0.106044725 -0.051668487 -0.034338664 0.027418224 0.10332507 -0.029488454
0.03869209 0.08685074 0.039688017 0.047332816 0.11891264 0.08895132 -0.033664748 0.02205116
0.054091502 0.05952856 -0.08101267 0.06885777 -0.025867973 -0.10322373 0.026243918 -0.026927348
0.0035264976 -0.09528177 -0.0962475 0.040355388 -0.05564608 0.012813862 -0.050497714 0.13275377
-0.0353451 -0.032045547 -0.021680787 0.08330065 -0.04553204 -0.07143497 -0.02320273 -0.036937695
0.018757643 -0.018857561 0.016847316 -0.14460956 -0.07532565 0.0847589 -0.10325267 -0.0783904
-0.08074068 0.053108014 -0.051366277 -0.031522665 0.10891983 -0.067496344 0.028614009 0.051171012
0.14069264 -0.029077362 -0.045350492 -0.011911666 0.10275378 -0.16458623 -0.0065176887 0.050527103
-0.090172745 -0.099355064 -0.0051670484 0.08571832 0.030448833 0.08803472 -0.0019215681 0.018210448
0.11112647 -0.12116133 0.029272953 0.09346202 -0.12735556 -0.012291383 -0.044296894 0.02941939
-0.027695332 0.09193764 -0.0036654498 -0.05776543 0.03427162 0.006637041 0.04260155 0.060251385
-0.05469253 0.040464066 -0.0017617503 -0.049742218 0.061896272 0.037029013 -0.061546005 0.015083102
0.04930724 0.023421986 0.0696881 -0.030306054 -0.06190886 0.0666697 0.02027292 0.06105625
-0.03829082 -0.04003303 0.013761891 -0.06354079 0.053307228 0.08419967 0.04032406 0.018178493
0.049431052 -0.046153113 0.11268212 -0.06977046 -0.06361574 -0.0025827023 0.08983797 0.026327144
0.04994703 -0.02596328 0.07040455 0.018431876 0.06908311 0.07995843 0.06535558 0.022952173
0.01665388 -0.028071336 0.008352885 0.081895724 -0.012064682 0.08649242 -0.0150078265 0.02758887
0.028887214 -0.03978212 0.035557434 0.028676717 0.020429343 0.016303707 0.101652116 0.09260676
-0.033355985 0.030465817 -0.079851925 -0.05589532 0.027908502 -0.011730211 -0.052443277 -0.06550636
-0.031793218 0.020282846 -0.11660875 -0.05381349 0.053239338 -0.07962073 -0.122704156 0.0067308675

weight f4 [200]
00000000: ee63 853f 75ea 853f 9e1f 843f 8170 823f
00000010: b4c4 7b3f 0f25 873f 172f 7d3f e9c0 733f
00000020: b9e4 7c3f b80c 773f dec8 803f 7b00 783f
00000030: 3066 753f 8e85 7a3f 3fad 773f 8552 853f
00000040: 75ed 833f 9493 813f 6151 813f 2c2c 773f
00000050: acd2 7b3f 5ef2 823f c110 863f c51f 803f
00000060: ab0f 803f 5c0d 7f3f be26 7a3f 6d2c 7d3f
00000070: b5f6 823f e871 833f c574 7d3f 815e 833f
00000080: 6a57 753f 9f67 7c3f 64d6 7c3f e8bb 813f
00000090: e745 743f 3a9b 853f cc07 753f 037a 7a3f
000000a0: ae0a 763f 2ecc 703f 543a 853f 9f15 733f
000000b0: 6b93 743f 1574 843f 3f79 7f3f 9d1b 833f
000000c0: 344e 7c3f 1f0e 853f d906 793f 5fb8 773f
000000d0: 8ff0 813f 4277 843f 0956 863f 495b 7a3f
000000e0: 4d76 753f 3e22 7a3f 1893 743f aaf6 823f
000000f0: 0053 793f b83f 873f 13f8 7c3f ac9c 7d3f
00000100: a2e1 743f 2926 7c3f 7865 843f 93c0 813f
00000110: 91a7 7d3f 4916 823f 143f 853f d6a4 833f
00000120: 8143 763f 017e 723f fb5a 753f 5c95 823f
00000130: f895 783f 106d 853f 9cbd 7b3f 8508 793f
00000140: bd80 813f e73b 7d3f c255 823f 8798 803f
00000150: 987c 803f fd93 7f3f c406 813f dc22 753f
00000160: 0d06 763f 2a3d 823f 8a2c 823f d917 7a3f
00000170: 6f35 7c3f 4fc2 793f 56c4 723f 94a8 793f
00000180: 7863 7c3f 6dc7 7e3f 38a6 733f 6cc3 773f
00000190: 7781 7f3f 87dd 7a3f ca1a 783f 694c 833f
000001a0: d50e 793f e83c 813f 7f51 7d3f 9a6b 7c3f
000001b0: af11 7f3f 1bd2 843f 30b5 813f b582 7e3f
000001c0: 11ab 7e3f c54d 833f 3de1 7e3f 0d86 843f
000001d0: 9199 793f 09c7 7e3f 5112 783f 6131 7a3f
000001e0: b2c7 8b3f 7745 783f 5628 783f 6bee 813f
000001f0: 0919 783f 8a22 813f 534b 7a3f b9dc 713f
00000200: 137b 883f 7d51 833f aa1e 843f 3dba 7f3f
00000210: d4d8 873f b212 763f a4d0 743f b83d 743f
00000220: 63eb 7e3f 3808 833f 88ad 703f 5c5e 7f3f
00000230: e247 823f 55a1 823f 8733 7e3f 71e6 733f
00000240: 759a 7c3f 1383 803f dbf0 843f d223 813f
00000250: fdd9 743f cee5 813f a9b6 7a3f 5536 833f
00000260: b7e9 763f d3bb 783f 211d 7e3f ad3f 783f
00000270: 8c1f 763f 13f7 7c3f b887 783f 60f8 723f
00000280: 12b4 773f dbea 843f 66d2 7b3f dbb1 873f
00000290: 248c 823f 8679 863f 232b 743f 0363 863f
000002a0: 4b0f 793f b719 7d3f 4e48 773f 72b4 793f
000002b0: f89c 793f 522d 7b3f ab28 843f 26e6 853f
000002c0: 474c 823f a143 7a3f cae8 853f 939b 7a3f
000002d0: 4264 803f 66a9 793f 3f27 813f 3f7c 7f3f
000002e0: 57f4 7e3f c544 783f 48dd 763f 9a04 833f
000002f0: abb0 823f ab73 833f 9a48 833f 4f85 843f
00000300: cb96 813f 3820 743f 1010 763f 4dcd 773f
00000310: aaf1 723f 9138 7c3f 15f5 843f 8b54 843f
1.0421121 1.0462176 1.0322149 1.0190583 0.9834702 1.0558184 0.9889998 0.9521623
0.98786503 0.9650378 1.00613 0.96875733 0.9585905 0.9786004 0.9674873 1.0415808
1.0306841 1.0123162 1.010296 0.96551776 0.98368335 1.0230215 1.0473863 1.0009695
1.0004781 0.9962976 0.97715366 0.98895913 1.0231539 1.0269136 0.990063 1.0263215
0.9583651 0.98595613 0.98764634 1.013547 0.9541916 1.0437996 0.9571502 0.97842425
0.96110046 0.94061553 1.0408425 0.94954866 0.9553744 1.0347925 0.9979438 1.0242802
0.9855683 1.0394934 0.97276074 0.967657 1.0151538 1.0348895 1.0495006 0.9779554
0.9588364 0.977085 0.9553695 1.0231526 0.9739227 1.056632 0.9881603 0.9906719
0.9565679 0.9849573 1.0343466 1.0136894 0.9908381 1.0163051 1.0409875 1.0284679
0.9619675 0.94723517 0.9584195 1.0201831 0.97103834 1.0423908 0.98336196 0.97278625
1.0117413 0.9891953 1.0182421 1.0046548 1.0038023 0.9983519 1.008019 0.95756316
0.9610298 1.0174916 1.0169842 0.9769264 0.98519033 0.97562116 0.94830835 0.97522855
0.9858928 0.9952305 0.95175505 0.96782565 0.9980692 0.97994274 0.96915877 1.0257694
0.97288257 1.0096712 0.9895248 0.98601687 0.9963636 1.0376619 1.0133419 0.99418193
0.99479777 1.0258108 0.99562436 1.0353409 0.9749995 0.99522454 0.9690295 0.97731596
1.0920317 0.96980995 0.9693655 1.0150884 0.969132 1.0088665 0.97771186 0.9447742
1.0662559 1.0259243 1.0321858 0.9989355 1.0613046 0.96122277 0.9563086 0.95406675
0.9957792 1.0236883 0.9401479 0.99753356 1.0178187 1.0205485 0.99297374 0.952735
0.9867318 1.0040001 1.0386003 1.0089056 0.95645124 1.0148256 0.9793497 1.0250956
0.9645037 0.97161597 0.992632 0.9697216 0.96141887 0.98814505 0.9708209 0.9491024
0.9675914 1.0384172 0.9836792 1.0601152 1.0199018 1.0505836 0.9537832 1.0498966
0.9728896 0.9886736 0.96594703 0.9754096 0.9750514 0.9811603 1.0324911 1.0460861
1.0179528 0.97759444 1.0461667 0.9789364 1.0030596 0.97524107 1.0090102 0.9979896
0.99591583 0.96979934 0.964314 1.0235779 1.0210165 1.0269674 1.0256531 1.0353183
1.0124143 0.9536166 0.9611826 0.9679764 0.949 0.98523813 1.0387293 1.03383

bias f4 [200]
00000000: 4d25 81bd 497c 7cbd 0bbe 6bbd 7612 a2bd
00000010: 2952 dbbb 559b 3bbd 10c9 20bc 0fc7 463c
00000020: 4ad6 2c3c 94fa ff3a 6397 aa3c d3d2 05bd
00000030: 2fa4 173d 81af 8d3c 0e37 503d 5303 8aba
00000040: b326 3cbd b548 5e3d 789e 3bbd 5962 12bd
00000050: 9e1d 983c 4635 6ebd 8e0a 5c3d 9e88 233a
00000060: 23a5 853d c8c1 373c 40f6 3abd 49b2 54bd
00000070: c93d 133d 11dc 3e3c f206 88bc 483a 333d
00000080: e6ec d2bc 929b 48bd 6c28 5bbd 4cf7 433b
00000090: 4ee7 2a3d f94f 88bd 6b9e 8cbd b4c8 163d
000000a0: 6258 de3c c0c6 4d3d 2b03 41bd daaf 943d
000000b0: 5fbc 8cbd 658b 96bd 88b9 2f3d 7fa4 e0bb
000000c0: 3e45 2dbc 2995 6e3c fecc b93c 4833 f63b
000000d0: ad5c 843d e31a bbbc 088e 6dbd e1eb 1c3d
000000e0: bb2f 6cbd e00d 58bd 72a0 ef39 1152 26bd
000000f0: 86e0 79bb f6eb 2fbd 23b8 333d 4b1c 1b3a
00000100: 1c50 debc 7932 2abc 2ddc 4ebd 4240 91bc
00000110: 8995 a4bd 795d 253d 7a1c ab3c 4c6f 1e3d
00000120: ccff 243d 0746 d63c 50a2 653d a54d 46bd
00000130: f918 06bc 1971 8bbd 9b3c 31bd a12e 973c
00000140: 4ae4 973c 802e e7bc a063 21bc 928b 21bc
00000150: 5648 04bc 2776 78ba d6ce bcbc 1b8e 593d
00000160: 1b9f ecbc 43e9 593d bfdd 223d c8f9 afba
00000170: a857 833d 0921 01bd 8e9e a5bc 2590 623d
00000180: 50ec 2b3d 28bd 833d cbbe a7bc e803 65bd
00000190: 8c7a c53c 4090 41bd cc9f 48bc 0703 41bd
000001a0: 9edf 123d 8d72 a03c d6be ecbc 134c 6d3d
000001b0: 4edb 2fbd 385c 9dbd ae50 143d 912f a43c
000001c0: c6ea 593c 2bba bd3c ba99 3539 5035 0fbd
000001d0: f963 86bd a540 04bd f94c 37bd 32bf 9a3c
000001e0: 71c0 433b 2b06 3d3d 17e5 0c3d 262b 813d
000001f0: 76d4 373d c232 86bd 33fc 593d 5a68 c93c
00000200: 9291 27bc cec8 433d 1094 1f3d 441f 8c3d
00000210: a00d f0bc 30f4 f53c ba63 dd3c 70f4 003d
00000220: faf2 0bbd 2c95 9d3b 1bc2 f23b d0e1 5cbd
00000230: 16af 9e3c a0d6 3c3c 5acd dd3c 53f5 c23c
00000240: 6a44 b23d ddfe 5f3d 3f6b 81bd f014 173d
00000250: 602a 19bd 24e3 4ebd 2ee8 5cbd 3a2b ecbc
00000260: 751e debc 79e8 78bd 1699 813b 78f1 6c3c
00000270: 87d7 a43c ba1b f2bb 05eb 1fbd 8dd7 0a3c
00000280: d5a3 87bd 3dc4 8abd aab8 3abd d6ea c33c
00000290: a67e 4f3d d0ff 803d 8c7e 493c 596d bdbc
000002a0: 54b9 683d 56bf 75bd ea97 0f3d 6d97 b7bd
000002b0: 0245 0dbd 63d5 9cbc 88e7 3e3d 2157 fabb
000002c0: 3159 533d 7fac 87bd 48d9 96bd 73d5 40bd
000002d0: d869 8ebd 73e5 303c 38c7 83bd e5a1 983d
000002e0: af73 6a3d 3348 abbc d2a2 2dbd eba8 48bd
000002f0: 56e3 15bd 32b4 9fbd 04fa d53c e9cd 713c
00000300: 578a 033d 937b 3d3d 1cb2 4dbc 6919 c03c
00000310: 551d ab3c 37dc 4bbd e789 c93c 7a45 913d
-0.06305943 -0.061641965 -0.057554286 -0.079136774 -0.006693144 -0.045802433 -0.009813562 0.01213242
0.010549137 0.0019529634 0.02082414 -0.03267176 0.037021812 0.0172956 0.050833754 -0.0010529555
-0.045935344 0.054268558 -0.045805424 -0.035738323 0.01856881 -0.058156274 0.053721003 0.0006238314
0.06525638 0.011215635 -0.045645 -0.05192784 0.035947595 0.011649148 -0.016604874 0.043756753
-0.025747728 -0.04897649 -0.053505346 0.002990204 0.041724496 -0.066558786 -0.06866153 0.0368125
0.027141754 0.05023837 -0.04712216 0.072601035 -0.068718664 -0.07350806 0.042901546 -0.006855547
-0.010575591 0.01456193 0.022680756 0.0075134374 0.06462989 -0.022839969 -0.05799678 0.03831089
-0.057662707 -0.052747607 0.00045705173 -0.04060561 -0.003812821 -0.04294964 0.04387678 0.0005916997
-0.027137809 -0.01038801 -0.050502945 -0.017730836 -0.08036334 0.040372346 0.020887602 0.03868036
0.04028301 0.026156439 0.056062996 -0.04841389 -0.008184665 -0.06808681 -0.04327069 0.018454852
0.018541474 -0.028220415 -0.009850413 -0.009859936 -0.008073887 -0.0009478055 -0.023047846 0.053114038
-0.028884461 0.05320097 0.039762255 -0.0013425881 0.064132035 -0.031525645 -0.020217206 0.05531325
0.041973412 0.06432563 -0.02047672 -0.05591193 0.024106286 -0.04725671 -0.01224513 -0.047122028
0.03585779 0.019585872 -0.028899591 0.05793388 -0.042933755 -0.07683605 0.036209755 0.020042213
0.013300603 0.02316006 0.00017318773 -0.034962952 -0.06562037 -0.032288212 -0.04475114 0.018889997
0.0029869343 0.04614846 0.034398165 0.06307058 0.044880353 -0.0655265 0.05321903 0.024585892
-0.010227578 0.047798924 0.038959563 0.06841901 -0.029303372 0.030023664 0.027025092 0.031483114
-0.034167267 0.0048090424 0.007408393 -0.05392629 0.019370597 0.01152578 0.027075458 0.02379862
0.08704455 0.054686416 -0.06319284 0.036885202 -0.037393928 -0.050509587 -0.05393236 -0.028829206
-0.027114132 -0.06076858 0.003955017 0.0144618675 0.020122303 -0.007388559 -0.03904249 0.008474243
-0.06623045 -0.06775711 -0.045586266 0.02391569 0.05065789 0.06298792 0.0122982375 -0.02312343
0.056817368 -0.059996925 0.035056986 -0.08964429 -0.03448964 -0.01914472 0.046607524 -0.007639781
0.05159873 -0.06624698 -0.07365662 -0.04707856 -0.06953782 0.010796892 -0.06434482 0.07452754
0.05723923 -0.02090845 -0.042391606 -0.048989218 -0.036593758 -0.077980414 0.026120193 0.014758565
0.032114353 0.046260428 -0.012554672 0.023449617 0.02088801 -0.04977056 0.02460189 0.0709333

running_mean f4 [200]
00000000: 6b85 a53e 995b ae3e bcbd ec3e 3a60 d93e
00000010: 0011 fe3e c102 343e 4c8e 683e 15a3 a63e
00000020: 529a 8c3e bbc0 213e da0a 3b3e 739a 333e
00000030: 0ef5 643e cb06 d33e ffba e33e 131c 953e
00000040: 0d67 323e 1e0c c43e a4f3 c23e 4cc9 273e
00000050: 7eb3 453e e2ae 9c3e aba3 9f3e b725 263e
00000060: e8d9 883e 1466 c63e 055b c43e 3ca6 cd3e
00000070: 2eca b73e 53bb bd3e 8ef4 663e 542f a43e
00000080: e52d 993e 9700 623e 3c03 7f3e a0c0 a13e
00000090: eab0 5a3e 6098 9b3e 8d0a ab3e b8e0 8e3e
000000a0: 06d5 863e 1059 833e c77b 983e 1983 ab3e
000000b0: 388d 373e 02b4 d93e 0b33 293e 3a85 983e
000000c0: b29c 8f3e f7f9 ab3e 7264 8b3e 82b9 a33e
000000d0: 81c6 643e bd3a 4d3e 3448 f93e 304b 463e
000000e0: 5642 733e ff52 4a3e f3f0 6e3e 4683 cf3e
000000f0: 91c5 6e3e 23bd 9a3e cf71 3a3e 76cb 813e
00000100: 15ef a43e 1c22 2f3e 8ca1 803e be87 e03e
00000110: 4690 a63e 2a62 233e 4ea4 333e 6061 7c3e
00000120: 261c 823e 2cd3 813e 0fa3 843e 67a7 c83e
00000130: 3796 1b3e f8ea 9e3e 610c 803e bea4 943e
00000140: c303 863e a01d bf3e af1a 293e d32c 0b3f
00000150: 52fd bb3e 7dd5 8b3e 63c4 963e 908a 813e
00000160: 89f8 5f3e ac4d 6c3e 23ca 893e 75e6 7d3e
00000170: 6758 543e 96c7 a53e eb09 673e 5e7a 5d3e
00000180: fe62 e23e 012a 1d3e 1dda 8e3e fb59 1f3e
00000190: 2f1b d83e e483 463e fc50 9d3e 1439 893e
000001a0: 0c39 943e 7d75 3e3e b960 613e ba3f 5d3e
000001b0: df10 403e 214d e93e bd64 723e fd0f 743e
000001c0: 7c41 c03e 3654 683e 5c48 cc3e f307 b23e
000001d0: e80f 843e 9f76 9c3e 5baf b23e d847 6a3e
000001e0: c27a 553e a9ce 8d3e 0965 953e 58fc 833e
000001f0: 1467 713e 4f96 553e b37a 6e3e 7252 a23e
00000200: 827c 1f3e f87f cf3e f701 3b3e 06d8 8f3e
00000210: 69fd 933e 2dec 8b3e e79d a93e 1ac0 973e
00000220: 448c 983e 9732 2f3e 7ae8 e23e 22a9 863e
00000230: eb29 3e3e 8053 a53e bb54 503e 3272 873e
00000240: 92ca 273e 9082 d83e e21d ae3e 8ba7 763e
00000250: 5cb3 343e 2071 e03e 81ed 2d3e c3fa 463e
00000260: eecd a13e 0e78 db3e eccf c83e 3de3 c43e
00000270: dc66 4e3e 5265 db3e d581 603e 4236 313e
00000280: 70e8 9a3e ac04 c83e 479a ce3e f43d 8b3e
00000290: 9b69 8a3e a665 573e 9330 9b3e 5039 433e
000002a0: 3405 833e 426d 8e3e 7605 923e 9468 a63e
000002b0: ab8f c03e 3e2d 253e b2c5 bf3e 5c9c 903e
000002c0: 6133 cb3e 6053 5b3e 8864 a23e 14aa 613e
000002d0: 7b05 573e 3631 9c3e 2187 bf3e 1c4e ae3e
000002e0: b4b7 643e d741 973e 7b67 4e3e 39c2 b03e
000002f0: 8462 943e ad20 aa3e 65aa 8e3e 07f1 e23e
00000300: 59ef ad3e 651f 5c3e b73e 923e 1f39 313e
00000310: fd7f 473e d2ca 303e 6539 333e d787 a23e
0.32328352 0.34054258 0.46238506 0.42456228 0.49622345 0.17579176 0.22710532 0.32546297
0.27461487 0.15796177 0.18265858 0.17539386 0.22359106 0.4121612 0.44478604 0.2912298
0.17422123 0.38290495 0.38076508 0.16385382 0.19306752 0.30602175 0.31179556 0.16225325
0.2672875 0.38749754 0.38350692 0.4016589 0.35896438 0.3705698 0.22554228 0.32067358
0.29917827 0.22070538 0.24903578 0.31592274 0.2135655 0.3038969 0.33406487 0.27905822
0.263344 0.25653887 0.29781935 0.33498457 0.17924964 0.42520148 0.16523378 0.29789144
0.28049237 0.33589146 0.2722507 0.3197747 0.22341348 0.20041938 0.486879 0.1936462
0.23755774 0.19758223 0.23334102 0.4052984 0.23317553 0.30222425 0.18207477 0.2535054
0.32213655 0.17102855 0.2512325 0.43853563 0.32531947 0.15955415 0.17543146 0.2464652
0.254121 0.25356424 0.25905654 0.39190218 0.15194021 0.31038642 0.25009444 0.29031938
0.26174745 0.3732729 0.16514085 0.5436527 0.36716706 0.27311316 0.29446706 0.25301027
0.21872152 0.23076504 0.2691203 0.24794944 0.20736848 0.32378834 0.22562377 0.2162871
0.4421615 0.15348054 0.27900782 0.15561669 0.4220824 0.1938625 0.3072585 0.2680136
0.28949773 0.18599506 0.22009553 0.21606341 0.18756436 0.45566657 0.23671241 0.23834224
0.3754996 0.22688374 0.39898956 0.3477169 0.25793386 0.3055925 0.3489941 0.22878969
0.2084761 0.27696732 0.29178646 0.2577846 0.23574477 0.2085812 0.23288994 0.31703526
0.1557484 0.4052732 0.18262468 0.280945 0.28904274 0.27328625 0.33128282 0.2963875
0.29794514 0.17109142 0.4431799 0.26300913 0.18570678 0.32290268 0.20344822 0.26454312
0.16385868 0.4228711 0.34007174 0.2408735 0.17646545 0.43836308 0.16985132 0.19431596
0.31602424 0.42865032 0.39221132 0.3845462 0.20156425 0.4285074 0.21924527 0.17305854
0.3025546 0.39066064 0.4035208 0.27195704 0.27033696 0.2103487 0.30310497 0.19064832
0.25589907 0.27817732 0.2851979 0.32501662 0.3760961 0.1613054 0.37455517 0.28244293
0.39687636 0.21418524 0.31717324 0.22037536 0.20998184 0.30506295 0.37407783 0.34043968
0.22335702 0.2954242 0.20156662 0.3452318 0.2898141 0.33228055 0.27864376 0.44324514
0.3397167 0.21496351 0.28563473 0.17306946 0.19482417 0.1726487 0.17502363 0.31744263

running_var f4 [200]
00000000: 62bb cf3e ab3b 9e3e 110a f33e 3fd7 153f
00000010: c8d3 1e3f 892e 8f3d de8e 933d 6573 953e
00000020: 7bd9 e83d 8189 793d cb07 0b3e c5be c03d
00000030: 5321 eb3d ceb6 093f 7c9b 863e 50f3 b03e
00000040: 1123 b13d a4ce 573e 778a eb3e c051 8b3d
00000050: 57d6 0a3e 12b0 443e ca68 0b3e 8179 943d
00000060: 1ece ed3d 5391 553e d17e 063f 5d5e f43e
00000070: 0b63 3f3e 4ed0 4d3e 4ca8 b43d bc69 163e
00000080: bdf7 1f3e d2f3 d13d 39c7 803e 313a 7d3e
00000090: 4fac fd3d 9296 393e 551b 483e e15f f43d
000000a0: a70b 0d3e 40ea 0e3e baff 433e d912 2e3e
000000b0: f9a7 a83d 18ef 013f f85f 903d 02ee 063e
000000c0: b69b 913e 2804 b73e 3e68 5d3e 1260 133e
000000d0: f205 ee3d 1fc7 ab3d 12f4 113f 7972 cb3d
000000e0: f140 303e 0022 ef3d b8a6 d33d 9a3a d43e
000000f0: 6710 513e b29f 6c3e 346e bc3d 4e6b d43d
00000100: cf42 743e 120e ca3d 2766 983e de85 0d3f
00000110: 6bb4 c43e 28e7 913d f703 843d 4f4d ef3d
00000120: 71d7 c23d 8a73 dd3d b0c9 5b3e dad8 a63e
00000130: 9a9c b93d c6e1 673e 4187 d23d 0a7a fd3d
00000140: 1e8d 0d3e a274 6c3e 4f56 8b3d 7630 ca3e
00000150: df7e 403e 945d 113e 9299 693e a3b1 f43d
00000160: ee8b 023e 172b a43d 467a e73d aad8 0a3e
00000170: 85ff 003e 9a03 b53e 4ddd b33d fe52 fa3d
00000180: a9b5 893e 52af 803d 73b9 823e 2507 d73d
00000190: 762c 6e3e 184d bc3d 643b e53e 6c54 373e
000001a0: 3bd5 803e 74b7 f83d 381b bd3d d1fc 9e3d
000001b0: 7d69 053e 36a7 073f d2f7 b53d f5b5 ce3d
000001c0: 650b e83e 8168 193e cf92 583e e702 eb3e
000001d0: 0d83 4d3e 3288 933e b8a5 a33e 9cf0 353e
000001e0: dc1f 3d3e a6ff ce3d 65f7 193e d4ed 063e
000001f0: f44c 7e3e 08ce 063e b4df 053e 15e3 813e
00000200: b4e4 5e3d cd26 623e 3254 fe3d a1bb d33d
00000210: 3a02 323e f83d 4d3e eeff 323e 3b0a 0c3e
00000220: fac1 883e 8e3f 873d 3e16 ee3e 5454 613e
00000230: 929a 9c3d 0d7b 803e 8ac2 c83d ece6 053e
00000240: 4538 ab3d 8d5f 713e f6a0 c53e 00de 093e
00000250: d952 ec3d e634 ee3e 2ec1 903d 634f 133e
00000260: 0da1 873e c205 fe3e 52e2 ca3e 0e48 ae3e
00000270: 13ff 8d3d 816e 8a3e ecd2 323e 511f 913d
00000280: 463f b63e 91b4 ab3e 25d1 033f eb1d db3d
00000290: 41d0 dd3d 5b62 b13d dadd 4c3e 6bc1 913d
000002a0: 98ff d03d 38ef 1e3e 5958 db3d 4290 503e
000002b0: db78 e53e c8da 9c3d 8d42 393e 3570 973e
000002c0: 6e51 543e 274b 323e 0f89 6a3e 0c23 013e
000002d0: cb8f 303e 3259 043e 7874 bd3e 0fa8 293e
000002e0: cc24 be3d 12db 0c3e a8d5 d53d 359d bd3e
000002f0: bbc1 4a3e d76e 973e f700 033e f33b 883e
00000300: a266 6e3e e7ed f53d 0b9d b73e b861 903d
00000310: a1eb 143e c988 c33d 9ee6 a83d 98a9 1e3e
0.4057265 0.30904898 0.47468618 0.58531564 0.620419 0.06991298 0.07204984 0.29189602
0.11369606 0.06092215 0.13577192 0.094113864 0.114809655 0.5379456 0.262905 0.34560633
0.086492665 0.21074921 0.46004078 0.06802702 0.13558327 0.1920779 0.13614193 0.072497375
0.11611579 0.20856218 0.52537256 0.47728243 0.18690126 0.20098993 0.088211626 0.14688772
0.15621848 0.10251583 0.25151995 0.2472923 0.12386381 0.18123844 0.19541676 0.1193235
0.13773976 0.13956547 0.1914052 0.16999377 0.08235163 0.50755453 0.070495546 0.1317673
0.2843911 0.35745358 0.21621796 0.14392117 0.11622228 0.08387589 0.57013047 0.09933943
0.17212273 0.11676407 0.103345335 0.4145096 0.20416413 0.23107794 0.09200707 0.10372029
0.2385361 0.09865965 0.29765436 0.5528239 0.38418898 0.07124168 0.06446069 0.11684667
0.095137484 0.10813053 0.21463656 0.3258732 0.090630725 0.2264472 0.10279704 0.12376793
0.13823363 0.23091367 0.068035714 0.39490098 0.18798397 0.14195853 0.22812489 0.11947944
0.12748691 0.08016031 0.11302619 0.13559213 0.12597473 0.3535431 0.08782444 0.12222861
0.26896408 0.0628344 0.25532112 0.104994096 0.23259148 0.09194392 0.44771874 0.17903298
0.25162682 0.12144366 0.09233707 0.07763065 0.13028522 0.5298952 0.088851586 0.10093299
0.45321193 0.14981271 0.21149753 0.45900652 0.20069523 0.28814846 0.3196237 0.17767566
0.18469185 0.10107355 0.1503578 0.13176662 0.24834043 0.13164532 0.13073617 0.25368562
0.054417327 0.22085114 0.12418403 0.10338522 0.17383662 0.2004317 0.17480442 0.13675778
0.26710492 0.06603919 0.46501344 0.22004825 0.076466694 0.2509388 0.098027304 0.13076371
0.08360342 0.23571606 0.38599366 0.13463593 0.115392394 0.46524733 0.07068096 0.14385752
0.2649006 0.49613768 0.39625794 0.34039348 0.06933417 0.27037433 0.17463273 0.07086051
0.3559515 0.335362 0.51491004 0.10699066 0.10830737 0.08661338 0.20006505 0.0711697
0.10205001 0.15520942 0.1071021 0.2036753 0.44818768 0.07658917 0.18091793 0.29577795
0.20734188 0.17411481 0.22903846 0.12611026 0.17242353 0.1292465 0.3700292 0.16568016
0.09284362 0.13755444 0.10441142 0.37034002 0.19800465 0.29576752 0.12793337 0.26608238
0.23281339 0.12008267 0.35862002 0.07049888 0.1454301 0.09547574 0.08247112 0.15494382

weight f4 [100, 200]
00000000: 3c85 48bd db00 1c3d 003e 3b3d 52dd 593d
00000010: d9f7 dc3c 7a47 7d3c 432f 9f3c c584 223d
00000020: 65e4 db3c f3a4 fa3c ee5b 703d 61af 653d
00000030: 2384 fb3c a46d 2e3d 5806 b33a 5986 f9bc
00000040: bb5e 963d 2cff 03bd ba95 e9bc f7df f8bc
00000050: 1a65 66bd 04c4 d83b 0165 22bd 7869 4bbb
00000060: fe4b 853b 001a f7bc c24c fc3c a1d2 a73c
00000070: 0b23 e3bb 9470 cebd c7f7 26bd 263a c5bd
00000080: b56a fbbc 093e 9c3b 5860 5d3d 67b1 b4ba
00000090: d144 76bd 69d2 913d d032 0c3d bdaa 113c
000000a0: a0e3 283c 0377 06bd 7122 83ba 256b 893c
000000b0: fee2 e9bc f2eb d43b e4d5 84bd 33d7 bfbd
000000c0: b60a 28bb c242 8cbd 522b 2cbd 6185 86bd
000000d0: e6c7 653c 6bf6 d23d 7ff6 993d f409 573d
000000e0: 1d89 86bc b741 63bd 3590 043d 2c96 243d
000000f0: b54b 08bd cf2d 543d e4e9 69bd e3c4 7fbd
00000100: 71b9 723d f59c e4bc d68c 693b 4d28 293d
00000110: f91d 52bc a8f0 11bc 87a8 75bd 519f 81bd
00000120: c250 693c 69c7 1f3d 4795 f53c 238e 813c
00000130: efc2 b83a c5b4 8b3d 308d e6bc 1ba5 cdbd
00000140: d77a 763d 3f30 a0bd 01ad ba3c 74f9 aabb
00000150: 8de3 adbd 1798 b03a b784 f5bc 6ed4 abbc
00000160: c866 ddbd 8eb9 8abc 0b99 03bd 52be 65bd
00000170: 696e 84bd e337 00bc 4c6e 6b3c 8006 e9bc
00000180: 4af9 db3b cfb9 f5bc 0598 eabb e0d4 1cbc
00000190: 4e69 33bb acfd 5c3d 8a4d 7c3c 181d 133d
000001a0: db52 8dbc b8f6 9cbd ac6e b53c 770b 66bd
000001b0: e719 ab3c e6d5 ce3c 6538 d0bd c662 8abc
000001c0: 20f9 003d e63f 9fbd cd31 ccbc e158 033d
000001d0: 180c 563c 539b a5bb 8e6a 073d ca8c e23b
000001e0: be45 59bd b0f0 30bd 55ff efbc e995 87bd
000001f0: 7149 673c 9d49 2a3c 2ea8 b7bc 4e5b 9a3c
00000200: 3d5f 9ebd 2aa9 2ebd 7a50 8ebd f1d1 93bd
00000210: 9462 a63d 688a e2bc d5a7 813d af93 1b3d
00000220: f051 853d 759f 8f3c e73f af3d 17f9 06bd
00000230: 7253 5cbd 12b1 ca3d 2511 703d e4a5 c93c
00000240: 26e0 9c3c 6cfd d53c 27d2 153d c2a7 be3b
00000250: 1674 c6bb c0b2 c23d 135c 4dbd 4e5c a53d
00000260: a49d 54bb f1f6 08bd 1617 20bc a257 333d
00000270: dab1 efbb 5242 193c e7ec 48bd 73b4 443c
00000280: 5e39 6abc 2d72 c13d 7004 7cbd 0dad a2bd
00000290: f9a4 8cbd 09d7 45bb 77a5 953d b194 1fbd
000002a0: 83ed fdbc 706b 7d3d 9f01 b9bd ae56 8b3d
000002b0: f44a 5d3d 35d5 4ebc c383 d43c b0ae 8c3c
000002c0: 33cc 96bd 597e b4bc e466 c93d 3f97 fc3c
000002d0: d789 3cbd aabc 363d b26f 123c 4855 36bd
000002e0: 9e8d 88bd 74e5 77bd 1d9c 0dbd 4e07 babc
000002f0: 9b7d ba3c 8f97 8d3d 158d 633b aa7b a1bd
00000300: 48eb ae3d 29ae 163d ecc6 f93b 9511 503d
00000310: 442f 1ebd 1315 ec3c f23b 75bd ff4d cabc
00000320: 8cde 093d 76be 90bd 5047 a53b 1e2d 973d
00000330: eed7 9c3d 77a2 cebd 828f b83d 60c1 03bd
00000340: 3de7 443d b5ea 553d 3ea6 fbbb 9016 5cbc
00000350: 3bf3 0d3d 1a16 bebd 760d 55bd 45ac 45bc
00000360: 2173 ad3d 28bb a8bd 9425 56bc 3043 413c
00000370: 3191 a03d 5ebb 433d 5214 5abd d65a ad3d
00000380: 31c7 6dbb 989c 2e3d 056c e5bc a43b e6bc
00000390: c81a a5bd c377 31bb 1691 afbb 16f4 3ebc
000003a0: d65e 9a3d ba5a d3bc d86d abbd 59a1 a7bc
000003b0: 7fb3 9cbc 60a8 01bd 6e99 613c cdff 15bd
000003c0: 868c 14bd 1856 983d 4c34 4e3d b96c 303d
000003d0: d487 423d 2e9a 243b 6d0a 443d 2cbc 97bb
000003e0: 59f5 bbbd 34f3 c5bd eb07 733c c9d1 5c3d
000003f0: 78f3 323b a150 b93c 8eb8 c8bb f23d 9d3d
-0.048955187 0.038086753 0.045713425 0.053189583 0.026973652 0.015458936 0.019431716 0.0396774
0.026842305 0.030596232 0.05868142 0.056075457 0.030702656 0.04258503 0.0013658507 -0.03045957
0.07342287 -0.032225773 -0.028513778 -0.030380232 -0.05624876 0.0066151638 -0.039647106 -0.0031038206
0.004067897 -0.030163765 0.03079832 0.020486178 -0.0069316677 -0.10080066 -0.040763643 -0.096302316
-0.03069053 0.0047681374 0.05404696 -0.001378578 -0.060124222 0.07120211 0.034228146 0.008890805
0.010308176 -0.032828342 -0.0010004771 0.016774723 -0.028550621 0.0064978534 -0.06486109 -0.09367218
-0.002564115 -0.068486705 -0.0420335 -0.06568409 0.01402471 0.10300907 0.075177185 0.052499726
-0.016422803 -0.055482592 0.03236409 0.040182278 -0.033275325 0.0518015 -0.05710782 -0.062443625
0.059258882 -0.027906874 0.0035636923 0.0412982 -0.012824529 -0.008907475 -0.059975173 -0.06329215
0.014240446 0.03900853 0.029978408 0.015814846 0.0014096181 0.068215884 -0.028143495 -0.10041257
0.060175743 -0.07821702 0.022787573 -0.0052177254 -0.084906675 0.0013473061 -0.02997051 -0.020975318
-0.108106196 -0.016934182 -0.032128375 -0.056089707 -0.064663716 -0.007825824 0.014369559 -0.028445482
0.006713067 -0.029995827 -0.0071592354 -0.009572238 -0.0027376 0.053952858 0.015399346 0.035916418
-0.017251423 -0.07664245 0.022147499 -0.056163277 0.020886375 0.02524848 -0.101670064 -0.016892802
0.031487584 -0.077758595 -0.02492609 0.032067183 0.013064407 -0.0050539165 0.033060603 0.006913756
-0.053045027 -0.043198287 -0.029296556 -0.0662039 0.014116631 0.010393527 -0.022419062 0.018842366
-0.07733009 -0.042641796 -0.069489434 -0.072177775 0.08124271 -0.027653888 0.063308395 0.03798264
0.06509769 0.01753209 0.0855711 -0.032952394 -0.053790517 0.09897055 0.0586101 0.024615236
0.019149851 0.026121818 0.03657737 0.005818338 -0.006056319 0.0950675 -0.050136637 0.08074246
-0.0032442594 -0.033438627 -0.009771129 0.043784745 -0.0073149027 0.009354191 -0.049054053 0.012005913
-0.014295904 0.094456054 -0.06152767 -0.07943163 -0.068674035 -0.0030187985 0.073069505 -0.038960163
-0.030997043 0.06187004 -0.09033512 0.06803642 0.05402656 -0.012624075 0.025941735 0.017173141
-0.07363167 -0.022032904 0.09834078 0.030833839 -0.04602989 0.044613518 0.008937763 -0.044514924
-0.06667636 -0.060521558 -0.03457271 -0.022708561 0.022764971 0.06913673 0.0034721543 -0.07884915
0.0854097 0.036787186 0.0076225903 0.050798018 -0.038619295 0.028818643 -0.05987162 -0.024695395
0.033659503 -0.070675775 0.0050439015 0.07381652 0.07658373 -0.100895815 0.09011747 -0.03216684
0.04807209 0.052225787 -0.0076797297 -0.013433114 0.03465579 -0.09281559 -0.05201479 -0.012064998
0.08469225 -0.08238822 -0.013070483 0.011795804 0.07840193 0.04778611 -0.053242035 0.08464591
-0.0036282057 0.04262981 -0.02800561 -0.02810461 -0.08061749 -0.002707944 -0.0053578718 -0.011654874
0.0753762 -0.025800098 -0.083705604 -0.020462679 -0.01912856 -0.031654716 0.013769491 -0.036620904
-0.036266826 0.07438296 0.050342843 0.043072436 0.047492817 0.0025116312 0.047861505 -0.004630586
-0.09177656 -0.09665528 0.014833431 0.053911004 0.0027305763 0.022621455 -0.0061255163 0.07677831

weight f4 [100]
00000000: b7c5 883f 1282 7a3f 5b4f 863f 3f5c 7c3f
00000010: b9ab 873f 6541 883f 5fa9 8a3f 0afc 893f
00000020: dbdd 853f b069 873f 41f2 883f 6ac2 7c3f
00000030: 8fd5 853f fbba 823f a99e 8a3f 1dd5 793f
00000040: f87e 883f 5e65 8b3f 7ed7 893f 8f75 7d3f
00000050: e786 793f f164 803f 748f 863f 4748 853f
00000060: 0f59 893f d9b9 863f cd6d 813f 2476 853f
00000070: 1b46 743f 705d 863f 7664 883f 4544 8b3f
00000080: a80f 873f 8303 7e3f 35bd 8a3f 4b9f 803f
00000090: 268a 883f db28 863f c1a0 8b3f b6d3 823f
000000a0: 6786 863f e043 863f 5b56 843f 14b1 7b3f
000000b0: e8c7 823f eb1e 773f d84d 8b3f e009 833f
000000c0: 1b88 883f 576d 893f ba90 863f 29cc 873f
000000d0: c9cf 8b3f 71f1 883f c787 893f a54a 883f
000000e0: a8a6 893f c0e2 893f 4f3c 8a3f 2c51 8a3f
000000f0: 3fd4 893f c9cb 873f 39dc 773f 7b46 873f
00000100: 5889 883f e5e0 763f 47ca 863f f8fa 7f3f
00000110: 9604 813f 3693 7a3f 1627 893f e3e6 7c3f
00000120: 00e5 853f ea42 893f 439e 873f 3412 8b3f
00000130: bae2 833f 9ed6 763f c58a 8b3f 240f 823f
00000140: b90c 8a3f 45ea 853f 8059 893f 228e 8a3f
00000150: 1d16 8a3f d454 833f b7d9 793f 9a1d 833f
00000160: 53b1 7d3f 5aa2 8b3f 6f47 883f 474f 893f
00000170: cdf4 7f3f 20cc 893f fc45 863f ec1e 833f
00000180: 8801 863f df94 863f ed66 853f 933d 7d3f
1.0685338 0.9785472 1.0492967 0.98578256 1.059928 1.0644957 1.0832938 1.0780041
1.045833 1.0579128 1.069893 0.9873415 1.0455798 1.0213312 1.0829669 0.9759081
1.0663748 1.089031 1.0768888 0.99007505 0.9747147 1.0030805 1.0512528 1.0412682
1.0730304 1.0525466 1.0111634 1.0426679 0.9541947 1.0497265 1.0655658 1.0880209
1.0551653 0.9922411 1.0838991 1.0048612 1.066716 1.0481218 1.0908433 1.0220859
1.0509766 1.0489464 1.0338854 0.98317075 1.0217257 0.9653155 1.0883131 1.0237389
1.0666536 1.0736493 1.0512917 1.060918 1.0922786 1.0698682 1.0744561 1.064778
1.0753984 1.0772324 1.0799655 1.0806022 1.0767897 1.0609065 0.9682041 1.0568384
1.0666914 0.9643691 1.053048 0.9999232 1.0079525 0.97880876 1.0715053 0.98789805
1.046051 1.0723546 1.0595173 1.086493 1.0303566 0.9642123 1.0901724 1.016087
1.0785133 1.0462118 1.0730438 1.0824625 1.0787998 1.0260262 0.9759783 1.0243409
0.990987 1.0908921 1.06468 1.0727319 0.9998291 1.0765419 1.0490108 1.0243812
1.0469217 1.0514182 1.0422035 0.9892208
